TrainedNetwork/truck3.onnx (onnx, 414278 bytes, 13 tensors)

network_body.observation_encoder.processors.0.normalizer.running_mean f4 [504]
0.6362749 0.0 0.09282101 0.682316 0.41943094 0.0 0.070872 0.6629529
0.333646 0.0 0.05472073 0.6360132 0.42087662 0.0 0.008023842 0.5059563
0.23831466 0.0 0.006849081 0.49370393 0.7248786 0.0 0.0031394693 0.45732433
0.5055522 0.0 0.0043164766 0.53057206 0.7988154 0.0 0.0038008925 0.49369243
0.8058615 0.0 0.0069876215 0.5227584 0.8275413 0.0 0.008295543 0.517786
0.84784234 0.0 0.011935809 0.5299913 0.8415648 0.0 0.018609647 0.5605078
0.8031952 0.0 0.016261347 0.56282806 0.8365694 0.0 0.054913465 0.5790491
0.8105916 0.0 0.01971484 0.5549536 0.8225243 0.0 0.09753219 0.5451124
0.85179 0.0 0.033275094 0.51883256 0.77952206 0.0 0.14467882 0.513981
0.8161118 0.0 0.072387144 0.5128759 0.80700004 0.0 0.12730882 0.5194017
0.80700004 0.0 0.12730882 0.5194017 0.63772595 0.0 0.09287234 0.68300676
0.42073494 0.0 0.07092953 0.663648 0.3344012 0.0 0.054745026 0.6366582
0.4221202 0.0 0.008032283 0.50655 0.23860529 0.0 0.006853504 0.49418923
0.72605705 0.0 0.0031428284 0.457903 0.50603837 0.0 0.0043180413 0.53107363
0.7995438 0.0 0.0038074676 0.49432433 0.8066728 0.0 0.006988547 0.5232542
0.82829684 0.0 0.008329073 0.51842284 0.8486715 0.0 0.0119366925 0.53047794
0.8422118 0.0 0.01863229 0.56109434 0.8039567 0.0 0.016261935 0.5633328
0.83722633 0.0 0.054941095 0.57962257 0.81118995 0.0 0.019718094 0.55544364
0.8231844 0.0 0.09765053 0.5457633 0.8524929 0.0 0.033305924 0.5193339
0.7801864 0.0 0.14517774 0.5151801 0.81707424 0.0 0.07259788 0.51372874
0.8076576 0.0 0.127882 0.520621 0.8076576 0.0 0.127882 0.520621
0.6391751 0.0 0.0929234 0.6837007 0.42205638 0.0 0.07098797 0.6643533
0.33522874 0.0 0.05476896 0.63730204 0.4233822 0.0 0.008040479 0.50714594
0.2389319 0.0 0.006857564 0.49469206 0.7272969 0.0 0.003145953 0.45849314
0.50654954 0.0 0.004319449 0.5315993 0.80028254 0.0 0.0038150146 0.49496397
0.8074879 0.0 0.006989298 0.5237589 0.82900256 0.0 0.008364563 0.5190785
0.8494835 0.0 0.011937549 0.53098804 0.8429638 0.0 0.018656349 0.5616953
0.8045794 0.0 0.01626255 0.5638502 0.83796555 0.0 0.05496925 0.5801919
0.81191367 0.0 0.01972153 0.55595034 0.8239916 0.0 0.097749 0.5464088
0.85329425 0.0 0.03333179 0.51983094 0.7809264 0.0 0.14567326 0.5163808
0.81812996 0.0 0.072772905 0.51454157 0.80849713 0.0 0.12843828 0.521846
0.80849713 0.0 0.12843828 0.52184594 0.6406672 0.0 0.09297663 0.68443364
00000000: e9e2 223f 0000 0000 f118 be3d 43ac 2e3f
00000010: a7bf d63e 0000 0000 5725 913d 48b7 293f
00000020: a6d3 aa3e 0000 0000 d822 603d c3d1 223f
00000030: 247d d73e 0000 0000 6f76 033c 5a86 013f
00000040: c208 743e 0000 0000 416e e03b c3c6 fc3e
00000050: a591 393f 0000 0000 8ebf 4d3b 6a26 ea3e
00000060: de6b 013f 0000 0000 3b71 8d3b 92d3 073f
00000070: 2b7f 4c3f 0000 0000 6518 793b 41c5 fc3e
00000080: f04c 4e3f 0000 0000 6bf8 e43b 7fd3 053f
00000090: bfd9 533f 0000 0000 07ea 073c a08d 043f
000000a0: 320c 593f 0000 0000 698e 433c 83ad 073f
000000b0: ca70 573f 0000 0000 4273 983c 707d 0f3f
000000c0: 339e 4d3f 0000 0000 8436 853c 8015 103f
000000d0: 6a29 563f 0000 0000 f1ec 603d 903c 143f
000000e0: ee82 4f3f 0000 0000 0481 a13c 7011 0e3f
000000f0: f490 523f 0000 0000 f5be c73d 7c8c 0b3f
00000100: e90e 5a3f 0000 0000 774b 083d 36d2 043f
00000110: c28e 473f 0000 0000 af26 143e 4294 033f
00000120: b4ec 503f 0000 0000 b63f 943d d64b 033f
00000130: 8e97 4e3f 0000 0000 3e5d 023e 83f7 043f
00000140: 8e97 4e3f 0000 0000 3e5d 023e 83f7 043f
00000150: 0242 233f 0000 0000 da33 be3d 88d9 2e3f
00000160: 926a d73e 0000 0000 8043 913d d6e4 293f
00000170: a236 ab3e 0000 0000 523c 603d 08fc 223f
00000180: 2420 d83e 0000 0000 d699 033c 43ad 013f
00000190: f254 743e 0000 0000 5c93 e03b 5f06 fd3e
000001a0: e0de 393f 0000 0000 e9f7 4d3b 4372 ea3e
000001b0: bb8b 013f 0000 0000 5b7e 8d3b 71f4 073f
000001c0: e7ae 4c3f 0000 0000 b586 793b 1418 fd3e
000001d0: 1c82 4e3f 0000 0000 2e00 e53b fdf3 053f
000001e0: 430b 543f 0000 0000 aa76 083c 5cb7 043f
000001f0: 8942 593f 0000 0000 1e92 433c 67cd 073f
00000200: 319b 573f 0000 0000 bfa2 983c e1a3 0f3f
00000210: 1bd0 4d3f 0000 0000 c037 853c 9436 103f
00000220: 7754 563f 0000 0000 ea09 613d 2562 143f
00000230: 25aa 4f3f 0000 0000 d787 a13c 8e31 0e3f
00000240: 36bc 523f 0000 0000 00fd c73d 25b7 0b3f
00000250: fa3c 5a3f 0000 0000 cb6b 083d 11f3 043f
00000260: 4cba 473f 0000 0000 79a9 143e d8e2 033f
00000270: c72b 513f 0000 0000 33ae 943d ba83 033f
00000280: a6c2 4e3f 0000 0000 80f3 023e 6b47 053f
00000290: a6c2 4e3f 0000 0000 80f3 023e 6b47 053f
000002a0: fba0 233f 0000 0000 a04e be3d 0207 2f3f
000002b0: c617 d83e 0000 0000 2462 913d 0f13 2a3f
000002c0: 1aa3 ab3e 0000 0000 6b55 603d 3a26 233f
000002d0: 8dc5 d83e 0000 0000 37bc 033c 51d4 013f
000002e0: 90aa 743e 0000 0000 6bb5 e03b 4748 fd3e
000002f0: 2130 3a3f 0000 0000 552c 4e3b 9dbf ea3e
00000300: 3bad 013f 0000 0000 2a8a 8d3b e416 083f
00000310: 51df 4c3f 0000 0000 5305 7a3b eb6b fd3e
00000320: 87b7 4e3f 0000 0000 7b06 e53b 1015 063f
00000330: 8339 543f 0000 0000 850b 093c 54e2 043f
00000340: c077 593f 0000 0000 b695 433c d5ee 073f
00000350: 7acc 573f 0000 0000 33d5 983c 43cb 0f3f
00000360: eaf8 4d3f 0000 0000 0a39 853c 7d58 103f
00000370: e984 563f 0000 0000 7027 613d 7587 143f
00000380: 93d9 4f3f 0000 0000 0c8f a13c c352 0e3f
00000390: 1df1 523f 0000 0000 a130 c83d 72e1 0b3f
000003a0: 7e71 5a3f 0000 0000 ea86 083d a413 053f
000003b0: cbea 473f 0000 0000 5f2b 153e 8831 043f
000003c0: f770 513f 0000 0000 f609 953d ffb8 033f
000003d0: abf9 4e3f 0000 0000 5385 033e b397 053f
000003e0: abf9 4e3f 0000 0000 5385 033e b297 053f
000003f0: c402 243f 0000 0000 886a be3d 0b37 2f3f

network_body.observation_encoder.processors.1.normalizer.running_mean f4 [22]
-13.895615 -17.778193 16.31066 0.0016300548 0.5775985 3.6791498e-05 -0.77042025 -39.599266
-17.139658 38.19928 -0.45518202 -0.045151267 0.23132455 0.001566344 0.6188483 -5.207361e-05
-0.75708985 -0.51969266 -0.04609296 0.1508765 11.645929 73.820465
00000000: 7054 5ec1 bd39 8ec1 3b7c 8241 90a7 d53a
00000010: 7fdd 133f 9250 1a38 433a 45bf a665 1ec2
00000020: 051e 89c1 10cc 1842 9e0d e9be 89f0 38bd
00000030: 58e0 6c3e c94d cd3a d86c 1e3f 9d69 5ab8
00000040: a4d0 41bf 940a 05bf f9cb 3cbd 5f7f 1a3e
00000050: ba55 3a41 14a4 9342

network_body._body_endoder.seq_layers.0.weight f4 [128, 526]
0.04374777 -0.015522061 -0.020745212 0.02379189 0.074695304 -0.041316863 0.004831441 -0.000201256
-0.015290822 -0.05631158 0.02971077 -0.014038645 0.01969701 0.050899643 0.003315485 -0.02560829
-0.05779184 -0.065452814 0.0009875172 -0.07324342 0.043281864 -0.00041059568 -0.006941477 -0.056144305
-0.0543682 0.00875141 0.019509556 -0.018188355 0.064109445 -0.013774995 -0.014943568 0.056295976
0.00942151 -0.03101846 -0.0652683 0.0060713934 0.007453301 0.029225286 -0.051314212 0.084599
0.031274084 -0.00039798464 -0.01985014 -0.010768418 0.10391415 0.015586009 0.060252406 0.00285018
-0.082465805 -0.027436312 -0.05172991 -0.0077133467 0.012427227 0.023976417 0.037064873 0.09866915
-0.044392843 -0.052611392 -0.02641401 0.08510241 -0.03990924 -0.024740124 -0.0631181 -0.014959283
0.077751644 -0.030215377 -0.003558129 0.042544544 -0.060198676 0.027834333 0.018493284 -0.023831906
-0.0538903 0.078597315 0.018977728 -0.02162858 -0.1005442 -0.02403646 0.031210981 -0.035636343
0.0038214386 -0.0072057764 -0.039850082 0.055553365 0.046504725 0.041157544 -0.002653118 0.017132364
0.07679541 0.008395152 0.08433483 -0.005443384 -0.037554197 -0.095464036 -0.026077833 0.022339646
-0.050006304 -0.004960484 0.03437612 0.0131253395 -0.005523402 0.032080505 -0.048865773 0.10200501
-0.007111713 0.043127682 -0.04246156 -0.0050464254 0.071878806 0.00016185903 -0.03525231 -0.031935204
0.033189412 -0.07021038 -0.01836904 0.03973065 -0.061187826 -0.048734367 0.02818289 0.037654787
-0.019525172 -0.048163246 0.04056562 -0.023015847 0.039856702 0.01711051 -0.03147432 -0.005746738
-0.014726552 -0.02963205 0.07347216 0.026570024 0.008304981 -0.013175651 -0.006189091 0.07931671
-0.029122273 -0.024116207 0.033133376 -0.002797358 -0.019087123 -0.058104962 0.03165941 0.031988595
0.048752494 0.06492786 0.02594051 0.12604338 0.025368927 0.005925569 -0.04712644 -0.0265091
0.0082683405 0.013315886 0.0040459256 0.044956565 -0.055209745 -0.056935593 0.07186181 -0.05790001
-0.027493695 0.023048252 -0.043837108 -0.009144382 0.028592331 0.123690136 0.09311482 -0.05448502
0.02662661 0.016683439 -0.07299941 0.03639307 0.012605514 -0.008353841 0.006701903 0.08269653
-0.0027362388 0.017752463 -0.08149217 -0.07116044 -0.010886621 0.0033940428 -0.044143427 -0.024152612
-0.022603186 0.020860905 -0.087360546 0.011965556 0.03892558 0.015973028 0.02474166 -0.050010856
0.02997958 -0.058488403 0.036379896 0.044630047 -0.11739436 -0.0046428023 -0.0026213722 0.028998971
0.0011930362 -0.026955493 -0.041042343 -0.04082714 0.021015171 -0.015802294 0.020448335 -0.001393003
0.01622543 -0.0041982816 -0.028718397 -0.043253664 0.05389914 0.007985103 -0.032955464 0.014779948
-0.059311207 0.044909306 -0.08806038 0.032649033 0.008763032 -0.036448196 0.04781864 0.07331656
-0.04254453 -0.0046155006 -0.0044176066 0.035303935 -0.03516378 0.062556714 0.07845038 0.07590763
-0.03185199 -0.014488796 -0.005479312 -0.0014492891 0.07452755 -0.005802999 0.009384823 0.0069965315
-0.038554672 0.034634154 0.07139764 0.031624604 0.0011263688 0.061080214 0.014927309 0.0029120573
-0.039314177 -0.044654496 0.05070933 -0.0420067 0.0190533 -0.027244745 -0.13488361 -0.021905921
00000000: dd30 333d 3e50 7ebc ddf1 a9bc 36e7 c23c
00000010: daf9 983d df3b 29bd 1151 9e3b 3f08 53b9
00000020: 5b86 7abc f9a6 66bd 0064 f33c 5802 66bc
00000030: a05b a13c 257c 503d 9c48 593b 7ac8 d1bc
00000040: 23b7 6cbd 200c 86bd 946f 813a a500 96bd
00000050: 5348 313d 3845 d7b9 5475 e3bb 92f7 65bd
00000060: 31b1 5ebd 1362 0f3c 81d2 9f3c bfff 94bc
00000070: d04b 833d 84b0 61bc ded5 74bc 9c96 663d
00000080: ad5c 1a3c 6d1a febc 63ab 85bd 8af2 c63b
00000090: d23a f43b de69 ef3c da2e 52bd 3e42 ad3d
000000a0: 4119 003d 98a8 d0b9 c39c a2bc 056e 30bc
000000b0: f1d0 d43d 765c 7f3c 3acb 763d 16ca 3a3b
000000c0: d5e3 a8bd 1ec2 e0bc bee2 53bd 3ec0 fcbb
000000d0: 919b 4b3c 316a c43c 56d1 173d 0d13 ca3d
000000e0: 45d5 35bd 0b7f 57bd 3262 d8bc 2c4a ae3d
000000f0: df77 23bd cdab cabc 1044 81bd c817 75bc
00000100: 413c 9f3d 3d86 f7bc 802f 69bb 3043 2e3d
00000110: e392 76bd d404 e43c 3a7f 973c 213b c3bc
00000120: 13bc 5cbd a1f7 a03d 2e77 9b3c 6b2e b1bc
00000130: 1eea cdbd 1ce8 c4bc 2cae ff3c 6af7 11bd
00000140: 1a71 7a3b 6f1e ecbb d739 23bd ed8b 633d
00000150: bd7b 3e3d d094 283d efdf 2dbb 2c59 8c3c
00000160: e946 9d3d d28b 093c bdb7 ac3d 6a5e b2bb
00000170: 6ed2 19bd a682 c3bd 2ea1 d5bc a201 b73c
00000180: 69d3 4cbd 8e8b a2bb f9cd 0c3d aa0b 573c
00000190: a7fd b4bb d966 033d 7a27 48bd 01e8 d03d
000001a0: 5f09 e9bb a7a6 303d 2cec 2dbd 7c5c a5bb
000001b0: 3235 933d b4b8 2939 ba64 10bd 7dce 02bd
000001c0: 9ff1 073d 76ca 8fbd ab7a 96bc 9bbc 223d
000001d0: 16a0 7abd b09d 47bd cedf e63c e83b 1a3d
000001e0: 41f3 9fbc d346 45bd 2328 263d bb8b bcbc
000001f0: c840 233d 572b 8c3c 37eb 00bd 224f bcbb
00000200: a347 71bc eabe f2bc 9278 963d 61a9 d93c
00000210: 9d11 083c b0de 57bc dccd cabb cd70 a23d
00000220: d591 eebc 5a8f c5bc ddb6 073d e153 37bb
00000230: 995c 9cbc 78ff 6dbd 4cad 013d 7906 033d
00000240: b2b0 473d e6f8 843d 3181 d43c 8411 013e
00000250: 7fd2 cf3c 472b c23b a707 41bd 9d29 d9bc
00000260: ef77 073c e02a 5a3c af93 843b 6024 383d
00000270: 9d23 62bd 4c35 69bd 492c 933d 9028 6dbd
00000280: 753a e1bc b0cf bc3c 8a8e 33bd 51d2 15bc
00000290: 773a ea3c 4151 fd3d fcb2 be3d af2b 5fbd
000002a0: 0c20 da3c b5ab 883c b780 95bd e610 153d
000002b0: 5c87 4e3c 8cde 08bc a39b db3b cc5c a93d
000002c0: 7852 33bb 9d6d 913c 5ee5 a6bd 91bc 91bd
000002d0: cc5d 32bc 976e 5e3b bdcf 34bd b3db c5bc
000002e0: 512a b9bc 7de4 aa3c 16ea b2bd 2e0b 443c
000002f0: 6e70 1f3d ded9 823c 06af ca3c 2fd8 4cbd
00000300: bc97 f53c 8991 6fbd 1603 153d ffcd 363d
00000310: 746c f0bd a622 98bb 54cb 2bbb 408f ed3c
00000320: a75f 9c3a c4d1 dcbc 041c 28bd 5c3a 27bd
00000330: 0228 ac3c d073 81bc 4483 a73c 6d95 b6ba
00000340: 31eb 843c bd91 89bb d842 ebbc c12a 31bd
00000350: 58c5 5c3d f3d3 023c 4ffc 06bd 9827 723c
00000360: 4ff0 72bd d2f2 373d 0059 b4bd feba 053d
00000370: d292 0f3c b44a 15bd 7add 433d fe26 963d
00000380: 2c43 2ebd a03d 97bb 92c1 90bb dc9a 103d
00000390: e507 10bd bc1d 803d 98aa a03d 7675 9b3d
000003a0: 3b77 02bd 6a62 6dbc cd8b b3bb 13f6 bdba
000003b0: e6a1 983d 1527 bebb cdc2 193c 2943 e53b
000003c0: 81eb 1dbd 8bdc 0d3d ed38 923d cd88 013d
000003d0: aaa2 933a 3f2f 7a3d ac91 743c 37d8 3e3b
000003e0: e707 21bd a2e7 36bd 96b4 4f3d 380f 2cbd
000003f0: ab15 9c3c 5f30 dfbc ee1e 0abe 0c74 b3bc

network_body._body_endoder.seq_layers.0.bias f4 [128]
0.026208853 -0.008275293 0.034102246 -0.023148917 0.02208242 0.011275889 0.021256909 0.0040761423
-0.006221291 -0.0033654496 -0.023235593 0.027967079 0.037311442 0.008181262 0.010646285 0.037072662
0.010751259 -0.020976009 0.034869693 -0.023699993 0.03563753 0.004597966 0.015165913 0.028948346
0.03516512 0.036124934 0.020960892 0.027716918 0.053634547 -0.020386266 0.017519033 0.03336571
0.0016788413 0.02468788 0.042045657 -0.0201419 0.03545317 0.026046295 0.023390332 0.018255841
0.01248566 0.010859118 -0.008037012 -0.0060222964 0.033629645 -0.027286345 0.03933788 -0.012956976
0.014539919 0.0032606914 0.03142875 -0.0057061766 0.03614075 -0.027017402 0.05232787 -0.0029349134
0.039248224 -0.009390371 0.0062852027 0.00086452696 -0.014350397 0.0018693928 -0.014940622 -0.02676
0.0009777736 0.02078541 0.04998725 0.004689063 0.03030443 0.026324067 0.031990312 -0.0029871163
0.038261406 0.0005607288 0.02796503 0.025701553 0.045460623 0.0030847616 0.024752904 0.036371317
0.016435925 0.020389432 -0.008492755 0.048214763 -0.006381831 0.02039547 0.030472748 0.013292972
0.011716422 0.021165708 0.012461808 -0.018595904 0.02207532 0.020650325 0.020192074 0.03130196
0.046093363 0.025322745 0.0071262466 -0.0119528845 -0.004740151 -0.020432577 -0.021122755 -0.00621856
0.043409254 -0.023777215 -0.003991181 -0.017667696 -0.010446253 0.0042858534 0.040481288 0.039645895
0.027962353 0.042895492 0.035678063 0.012602846 0.025090571 0.0024043086 0.010431455 0.0091911545
0.032591276 0.038769063 0.03297247 0.031005487 0.03685178 -0.0038819578 -0.009763102 0.032641094
00000000: f3b3 d63c 1895 07bc ccae 0b3d cca2 bdbc
00000010: 31e6 b43c 82be 383c f822 ae3c 2991 853b
00000020: f9db cbbb e08e 5cbb 9258 bebc 371b e53c
00000030: e2d3 183d b30a 063c c16d 2e3c 81d9 173d
00000040: 0c26 303c e1d5 abbc 86d3 0e3d 7d26 c2bc
00000050: a9f8 113d 89aa 963b 737a 783c 1525 ed3c
00000060: 4d09 103d bdf7 133d 2db6 ab3c 970e e33c
00000070: e6af 5b3d 1901 a7bc 1384 8f3c 7caa 083d
00000080: 910c dc3a 3d3e ca3c 1138 2c3d a000 a5bc
00000090: 5837 113d 0a5f d53c 159d bf3c 468d 953c
000000a0: a790 4c3c 71ea 313c acad 03bc af56 c5bb
000000b0: 3dbf 093d 9d87 dfbc c220 213d 7f49 54bc
000000c0: d738 6e3c 53b1 553b 6fbb 003d e1fa babb
000000d0: 5308 143d 9953 ddbc c055 563d ad57 40bb
000000e0: bfc2 203d 12da 19bc 1af4 cd3b 6ca1 623a
000000f0: ed1d 6bbc 6a06 f53a 83c9 74bc ca37 dbbc
00000100: a328 803a 2a46 aa3c 6ebf 4c3d b6a6 993b
00000110: ff40 f83c 92a5 d73c 4608 033d 7fc3 43bb
00000120: feb7 1c3d dffd 123a eb16 e53c 108c d23c
00000130: eb34 3a3d b629 4a3b 9ac6 ca3c 17fa 143d
00000140: a2a4 863c bd07 a73c 3225 0bbc d87c 453d
00000150: ae1e d1bb 6714 a73c fca1 f93c c4ca 593c
00000160: 3cf6 3f3c b563 ad3c 9c2c 4c3c 7056 98bc
00000170: 4dd7 b43c df2a a93c d969 a53c 7c36 003d
00000180: 65cc 3c3d a571 cf3c 4a83 e93b 08d6 43bc
00000190: 4553 9bbb 3862 a7bc a109 adbc 10c5 cbbb
000001a0: e7cd 313d 6fc8 c2bc 74c8 82bb d8bb 90bc
000001b0: c326 2bbc 5870 8c3b b5cf 253d bc63 223d
000001c0: 4e11 e53c 2fb3 2f3d 2923 123d 2b7c 4e3c
000001d0: be8a cd3c 9b91 1d3b b2e8 2a3c 7f96 163c
000001e0: 6e7e 053d 4fcc 1e3d 240e 073d 38ff fd3c
000001f0: e4f1 163d 7268 7ebb 6bf5 1fbc abb2 053d

network_body._body_endoder.seq_layers.2.weight f4 [128, 128]
0.024182254 0.061091572 0.11978808 0.13319544 0.043602362 -0.07153442 -0.0013084591 -0.105186015
-0.09307993 -0.0050320597 0.02937844 0.12883683 -0.050057843 -0.011210585 -0.08706235 0.033548385
0.14044075 0.0064318385 -0.0992375 0.09097735 -0.048611175 -0.06742173 -0.022282245 -0.09293062
-0.09834514 -0.0067566303 -0.1522532 -0.09367432 0.07028375 -0.060416196 -0.16332589 0.08305075
0.09354746 0.09339495 -0.01376762 -0.07073587 -0.04701404 0.14157955 0.010267685 0.039312415
-0.08233239 -0.017746229 0.10769265 -0.06128708 -0.067576736 0.010984883 -0.18971314 -0.016404418
0.10550805 -0.011445162 -0.15011607 0.019853333 0.087327525 -0.04439062 0.09130932 0.03142137
0.00823418 0.11693101 0.08950636 -0.066550635 0.21283525 0.18696348 -0.029957032 0.21032707
-0.033412464 0.075866714 -0.0028297452 0.09360867 0.092057124 0.05593058 0.05084537 0.0866263
-0.082713075 0.14323321 -0.047209457 0.20910418 0.041254893 -0.07238924 -0.03971267 -0.12734097
0.046032056 -0.03606581 -0.0770458 0.09894174 -0.062027745 -0.09630539 -0.0066383686 0.14868581
-0.08741158 0.11002398 0.26151145 0.025135957 0.04610293 -0.133083 0.065114915 0.0058797286
0.06867677 -0.12057498 -0.14004338 -0.08097005 -0.184058 0.047325164 -0.13278367 0.027637765
0.04575613 0.052412465 0.13819206 -0.087048985 0.05535395 0.14700907 -0.15340593 -0.018801682
-0.024767576 -0.15138392 -0.109789215 0.091288485 -0.028046548 -0.14931217 0.008189819 0.039444853
-0.10367164 -0.017407123 0.07208707 -0.03975597 0.017030584 -0.09919071 0.052889492 -0.09137802
-0.21098533 0.112748325 0.2192922 -0.07673403 0.15427381 -0.04058754 -0.050723996 -0.08498169
-0.06543316 -0.021385299 -0.1141591 0.012752288 0.034636963 -0.060833823 0.039303944 0.100224726
-0.06112046 0.010569248 0.004745458 -0.16324301 0.18433091 -0.0367321 0.10293467 0.045361083
0.100525536 0.018823214 -0.05440838 0.050902702 -0.043836225 -0.17390801 -0.034129016 0.16622092
-0.014472616 -0.042328123 -0.06319135 -0.0207556 0.028174086 -0.1979869 0.08108576 0.0049950504
0.094408 -0.040390067 -0.25159422 0.1277292 -0.048093423 -0.07329581 -0.075000755 -0.0780345
0.022210233 -0.11151653 0.0573218 0.21294674 -0.10409827 0.057402574 -0.0370012 0.078747496
0.08595149 0.022310274 0.0040250514 -0.05592543 -0.1489476 -0.23889682 -0.029563643 0.08811937
0.13691044 -0.08035798 -0.0019123034 0.1338281 0.081410386 -0.096273676 -0.020198675 0.07861382
-0.15505958 -0.0010839072 0.0010684978 -0.14383 0.049805112 -0.07148427 -0.03649982 -0.06330576
-0.119873114 -0.06618138 0.011323555 -0.04283656 -0.063960366 0.18880579 0.03455967 -0.08972116
-0.071565785 -0.06354899 -0.002587246 -0.0949359 0.10788799 -0.06752504 0.13001953 0.0068315775
0.044654686 -0.06745851 -0.030956145 0.021634225 0.07407135 -0.22889327 0.03206569 -0.052142877
0.07288534 0.00023900387 0.050277814 -0.052037925 0.0938515 -0.06467348 -0.0051615834 0.027377522
-0.15617393 -0.03570669 0.07180723 -0.029377466 0.01159871 -0.084724054 0.106277935 0.116886355
0.024361137 -0.11144073 0.13303633 0.011139349 0.06049064 0.03682487 0.119024344 -0.14537786
00000000: dd19 c63c 283b 7a3d 7453 f53d 6364 083e
00000010: 6498 323d a380 92bd 9a80 abba c46b d7bd
00000020: b1a0 bebd fae3 a4bb 0eab f03c cded 033e
00000030: 7409 4dbd 9aac 37bc bf4d b2bd 086a 093d
00000040: b3cf 0f3e 2cc2 d23b 083d cbbd 5552 ba3d
00000050: 831c 47bd 6714 8abd 4189 b6bc 6952 bebd
00000060: 2d69 c9bd b966 ddbb 43e8 1bbe 52d8 bfbd
00000070: edf0 8f3d f976 77bd e73e 27be 8316 aa3d
00000080: d095 bf3d da45 bf3d 9591 61bc f8dd 90bd
00000090: cb91 40bd 3bfa 103e cb39 283c 0e06 213d
000000a0: e29d a8bd 8a60 91bc f78d dc3d 2908 7bbd
000000b0: ac65 8abd f0f9 333c 2944 42be 8f62 86bc
000000c0: 9b14 d83d 7d84 3bbc 07b8 19be 75a3 a23c
000000d0: c6d8 b23d f0d2 35bd 6100 bb3d b2b3 003d
000000e0: a7e8 063c 8679 ef3d 1c4f b73d b34b 88bd
000000f0: 7cf1 593e 5b73 3f3e 7368 f5bc fb5f 573e
00000100: 82db 08bd 0260 9b3d 3f73 39bb e7b5 bf3d
00000110: 7288 bc3d 7717 653d 3c43 503d 2169 b13d
00000120: 7965 a9bd baab 123e b45e 41bd 681f 563e
00000130: e4fa 283d cf40 94bd c1a9 22bd ac65 02be
00000140: 1c8c 3c3d beb9 13bd 30ca 9dbd f8a1 ca3d
00000150: ce10 7ebd c33b c5bd ac86 d9bb 1841 183e
00000160: d804 b3bd 4154 e13d d4e4 853e ece9 cd3c
00000170: 6dd6 3c3d e946 08be f85a 853d bdaa c03b
00000180: 68a6 8c3d 04f0 f6bd 8867 0fbe a0d3 a5bd
00000190: b379 3cbe 08d8 413d 71f8 07be 9868 e23c
000001a0: c86a 3b3d 74ae 563d 3882 0d3e bd46 b2bd
000001b0: d3ba 623d 8c89 163e 7216 1dbe fc05 9abc
000001c0: 5fe5 cabc 6304 1bbe 2bd9 e0bd 75f5 ba3d
000001d0: e0c1 e5bc 4ae5 18be 972e 063c ed90 213d
000001e0: cc51 d4bd 6299 8ebc 63a2 933d 28d7 22bd
000001f0: b983 8b3c 8024 cbbd a7a2 583d 6624 bbbd
00000200: 8a0c 58be 98e8 e63d 228e 603e bb26 9dbd
00000210: f4f9 1d3e 1f3f 26bd f7c3 4fbd e10a aebd
00000220: d201 86bd 3930 afbc 3fcc e9bd f9ee 503c
00000230: 7ddf 0d3d e32c 79bd 2cfd 203d 9f42 cd3d
00000240: 7359 7abd a42a 2d3c c97f 9b3b 2d29 27be
00000250: 3ec1 3c3e 6674 16bd 6acf d23d 8bcc 393d
00000260: 55e0 cd3d 2433 9a3c 52db 5ebd 5a7f 503d
00000270: 9d8d 33bd f114 32be deca 0bbd d135 2a3e
00000280: 8d1e 6dbc 4160 2dbd 776a 81bd a607 aabc
00000290: 57cd e63c 14bd 4abe 4a10 a63d 85ad a33b
000002a0: fb58 c13d 0e70 25bd f5d0 80be 72cb 023e
000002b0: 9cfd 44bd 1d1c 96bd ff99 99bd 8dd0 9fbd
000002c0: 3cf2 b53c c762 e4bd 44ca 6a3d b60e 5a3e
000002d0: 7931 d5bd f61e 6b3d 928e 17bd 5e46 a13d
000002e0: 5607 b03d 09c4 b63c 94e4 833b 1012 65bd
000002f0: b885 18be 5ea1 74be 742f f2bc ee77 b43d
00000300: 4032 0c3e ba92 a4bd 41a6 faba 3c0a 093e
00000310: 7dba a63d 222b c5bd b177 a5bc 4800 a13d
00000320: f0c7 1ebe e411 8eba d60c 8c3a 2c48 13be
00000330: 7200 4c3d 5866 92bd d680 15bd 73a6 81bd
00000340: 0980 f5bd 1a8a 87bd 6f86 393c 6475 2fbd
00000350: a7fd 82bd 4e56 413e 718e 0d3d babf b7bd
00000360: 1591 92bd f925 82bd c98e 29bb c16d c2bd
00000370: 61f4 dc3d 914a 8abd d723 053e 6ddb df3b
00000380: d5e7 363d b027 8abd be97 fdbc 423a b13c
00000390: b8b2 973d ff62 6abe 5057 033d c593 55bd
000003a0: e944 953d 1d9d 7a39 1cf0 4d3d b825 55bd
000003b0: 3735 c03d 8873 84bd 8022 a9bb d346 e03c
000003c0: 0fec 1fbe 2e41 12bd ab0f 933d 03a9 f0bc
000003d0: 8408 3e3c ce83 adbd 3fa8 d93d 1d62 ef3d
000003e0: 0291 c73c 0a3b e4bd ad3a 083e d181 363c
000003f0: 09c5 773d add5 163d 09c3 f33d efdd 14be

network_body._body_endoder.seq_layers.2.bias f4 [128]
-0.0075104614 0.020313483 0.02678045 -0.010311052 0.035278246 0.0020280275 -0.0059436387 -0.0070294295
0.027627207 0.0035527821 -0.017279783 -0.030588128 0.044742174 0.03349066 0.014312686 0.03108581
0.03274112 0.027392803 0.041319903 0.025467297 -0.010003989 0.037942793 -0.011143925 -0.019761764
-0.0026269285 -0.0120612765 0.038427293 -0.024035394 0.020299045 -0.018110808 0.0026087633 -0.015293979
0.042067908 0.024647862 0.010602008 0.0074125957 -0.0013443661 0.025385214 0.044203635 0.010153518
-0.019379308 0.001817972 0.034592427 -0.01017056 -0.014730827 0.04076595 0.041198388 0.02944804
0.023298062 0.03472179 0.04623505 -0.01652471 0.0328343 -0.013939859 -0.0098320395 -0.02305864
0.0054006814 0.04367038 -0.010731541 -0.021663755 -0.022462746 0.03655923 0.04141922 -0.009722693
0.016982144 0.011253869 0.04400454 0.029374426 -0.0041876803 -0.0136008365 0.041336298 -0.022367492
0.017258698 0.009559494 -0.0013100685 0.022259014 -0.024304416 0.01396815 0.041524228 0.04312332
0.023769414 -0.0057041002 0.012217664 0.019101875 -0.0036537424 0.042786594 0.041670904 -0.019490166
-0.016074931 0.028510546 0.0094005475 -0.012684878 0.011391403 -0.020285688 0.018133469 0.0179591
0.033707503 0.046709217 -0.012530847 -0.012261773 0.035590872 -0.0032368784 0.0027620294 0.04227875
-0.017776748 0.040242083 0.033394556 0.03159109 0.02391976 -0.0096631115 0.03119793 -0.022301976
-0.0048025777 0.029199483 -0.01545015 0.0033046033 0.039164163 0.041390046 -0.016698394 -0.018501947
0.019159371 -0.010637575 0.010289509 -0.00022458665 0.035335407 0.03655101 0.031184232 0.015364183
00000000: 511a f6bb 7668 a63c ad62 db3c b0ef 28bc
00000010: ec7f 103d a8e8 043b dbc2 c2bb 2157 e6bb
00000020: 7452 e23c cbd5 683b 558e 8dbc f493 fabc
00000030: 9243 373d 812d 093d c27f 6a3c aba7 fe3c
00000040: 8d1b 063d df66 e03c 0f3f 293d cba0 d03c
00000050: c5e7 23bc e769 1b3d 0295 36bc 6ce3 a1bc
00000060: 8c28 2cbb a99c 45bc f065 1d3d e0e5 c4bc
00000070: 2f4a a63c 1e5d 94bc c9f7 2a3b 9993 7abc
00000080: 664f 2c3d 50ea c93c 0bb4 2d3c 5ce5 f23b
00000090: 7135 b0ba a7f4 cf3c df0e 353d f15a 263c
000000a0: 5bc1 9ebc 0549 ee3a cab0 0d3d 6ca2 26bc
000000b0: 9159 71bc 32fa 263d a4bf 283d 043d f13c
000000c0: 94db be3c 7038 0e3d f760 3d3d d45e 87bc
000000d0: 427d 063d 0264 64bc 9016 21bc 79e5 bcbc
000000e0: 33f8 b03b b6df 323d 58d3 2fbc 3078 b1bc
000000f0: cb03 b8bc 22bf 153d 33a7 293d ee4b 1fbc
00000100: 231e 8b3c 2662 383c 1b3e 343d a3a2 f03c
00000110: cf38 89bb 0bd6 5ebc 4050 293d 083c b7bc
00000120: 1d62 8d3c 6d9f 1c3c 9bb6 abba 8958 b63c
00000130: 0e1a c7bc abda 643c 4f15 2a3d 14a2 303d
00000140: 13b8 c23c 76e9 babb 992c 483c 897b 9c3c
00000150: a073 6fbb ff40 2f3d 1caf 2a3d d7a9 9fbc
00000160: 93af 83bc f38e e93c c104 1a3c 3cd4 4fbc
00000170: 02a3 3a3c 2c2e a6bc a48c 943c f61e 933c
00000180: e110 0a3d 2a52 3f3d 2f4e 4dbc 9be5 48bc
00000190: bcc7 113d cf21 54bb 2a03 353b 7c2c 2d3d
000001a0: 8ba0 91bc e2d4 243d bbc8 083d a965 013d
000001b0: 5ff3 c33c 0752 1ebc cd92 ff3c a2b2 b6bc
000001c0: f15e 9dbb c133 ef3c a022 7dbc 0b92 583b
000001d0: 9a6a 203d 9c88 293d 12cb 88bc 6591 97bc
000001e0: 1df4 9c3c 3949 2ebc 5495 283c 057f 6bb9
000001f0: dcbb 103d 83b6 153d 1376 ff3c 0eba 7b3c

network_body._body_endoder.seq_layers.4.weight f4 [128, 128]
-0.11701355 -0.089477904 0.071772434 0.12330278 -0.095682375 0.014653235 -0.037401766 0.1360689
-0.11677009 -0.0065098754 -0.08911628 0.006476473 0.0022078634 0.16595154 0.074605756 -0.02359118
0.027810045 0.053377178 -0.15740544 0.050127078 0.16579776 -0.07301622 -0.07891258 0.041127067
0.07035774 -0.08197442 0.16515502 -0.06987233 -0.13212807 0.041487593 -0.18445362 0.15656541
-0.08723973 -0.0053428267 0.11619317 0.050741304 0.05357629 -0.09119805 -0.021406097 -0.062234137
-0.0612768 -0.11376849 -0.11978523 -0.041656367 0.2011121 0.066966996 -0.0031620555 -0.034819108
-0.048638932 -0.02615495 0.056840975 -0.044638816 -0.053941753 0.026629666 -0.034316335 0.15490381
0.042189837 -0.0708184 -0.053636085 -0.1418687 0.06931477 0.0007204935 0.010381322 -0.082710944
0.087932065 -0.1379969 -0.12749489 -0.07715692 -0.03528273 0.115902506 0.043420892 -0.046623718
0.0129361795 -0.048414942 -0.107861035 0.022796724 0.027353214 -0.04316828 0.053198803 0.07377777
-0.020861259 -0.03636086 -0.123160735 -0.06605175 0.002334013 -0.04394882 -0.17847753 -0.048291262
0.023739299 0.049008068 0.019178702 -0.08642284 -0.052709013 -0.0014002749 0.106772155 0.031089405
0.016330285 0.067173645 -0.072066896 -0.11451992 -0.1830038 -0.11156587 -0.09562411 -0.038110945
0.06747751 -0.053093307 -0.009700031 0.09243615 -0.027163303 0.081929535 -0.03171664 0.08990569
0.06016916 -0.026848352 -0.10211977 0.050539974 -0.097981885 -0.11575308 -0.038576458 -0.2271012
-0.047586247 -0.08634743 0.059388153 0.034582138 -0.058965065 0.009835763 -0.025316996 -0.17216803
-0.020069601 -0.053105872 -0.1926229 -0.015736245 0.008268411 -0.08066269 0.0048349616 0.12006684
-0.06067809 0.0942416 0.117011435 0.052685484 0.080991715 -0.2884385 0.015430931 0.029530846
-0.031679314 -0.16138133 -0.0025866192 0.09927326 0.12923491 -0.16944148 0.060542922 0.008527211
-0.08958446 0.0869415 0.009449577 0.113413036 -0.03589999 0.035727758 -0.038822167 0.09147015
0.0075576603 -0.0064252657 -0.009811496 -0.04163877 0.18432339 -0.04781023 -0.04373807 -0.095279746
0.13030589 0.1701419 -0.0636392 0.014029002 0.18455422 -0.1089369 0.06433131 0.047895778
-0.107452706 0.021165656 -0.04750272 -0.015647186 0.03837529 -0.061563272 -0.09125901 -0.0056370064
0.14532107 0.033575147 0.02207411 0.13665034 -0.08162003 -0.091866374 0.13722983 -0.13955076
0.035179146 0.026033565 -0.0149650825 0.07520575 -0.043759905 0.11277314 -0.0532279 0.0011452716
-0.007974956 0.078186974 0.1218968 -0.0370111 -0.10879189 0.14384183 -0.070719264 0.067276604
0.010815929 0.092541605 -0.041779786 -0.021181067 0.10695555 0.021213531 0.017014725 0.12111262
-0.097919814 0.057759132 -0.121374235 0.09437692 0.17068256 -0.034825712 -0.066282205 0.06541572
0.09121026 0.009237732 0.1471288 0.16857517 0.08792962 0.039447132 -0.008053295 0.07428125
0.09889757 0.029864646 -0.005274864 -0.086609766 -0.04535805 -0.010572707 -0.122502536 0.16484508
0.07590509 -0.035638023 0.047433473 0.023724921 0.070742145 0.08462871 0.094659165 0.06570159
0.101021625 -0.0651134 0.013960851 -0.055627298 -0.073576145 -0.03204798 0.0052198335 0.087502494
00000000: cda4 efbd 3140 b7bd 6dfd 923d 2b86 fc3d
00000010: 1ff5 c3bd 1f14 703c 9832 19bd a555 0b3e
00000020: 2825 efbd cb50 d5bb 9982 b6bd 9838 d43b
00000030: cdb1 103b 33ef 293e e7ca 983d 4a42 c1bc
00000040: e4d1 e33c 07a2 5a3d e42e 21be 0d52 4d3d
00000050: e3c6 293e 8789 95bd eb9c a1bd db74 283d
00000060: b817 903d 34e2 a7bd 661e 293e 3919 8fbd
00000070: 954c 07be e5ee 293d 69e1 3cbe af52 203e
00000080: beaa b2bd e112 afbb aff6 ed3d 1dd6 4f3d
00000090: d072 5b3d 0bc6 babd d75b afbc 39e9 7ebd
000000a0: 62fd 7abd 74ff e8bd f551 f5bd de9f 2abd
000000b0: 55f0 4d3e fe25 893d 7d3a 4fbb 7b9e 0ebd
000000c0: 9e39 47bd e842 d6bc 15d2 683d 31d7 36bd
000000d0: 07f2 5cbd 7526 da3c 498f 0cbd 1b9f 1e3e
000000e0: 40cf 2c3d 3d09 91bd 83b1 5bbd 0746 11be
000000f0: e7f4 8d3d 80df 3c3a 6c16 2a3c 5b64 a9bd
00000100: ba15 b43d 0f4f 0dbe 058e 02be 7304 9ebd
00000110: a084 10bd 4b5e ed3d 1bda 313d 83f8 3ebd
00000120: 45f2 533c bf4e 46bd 3fe6 dcbd 32c0 ba3c
00000130: d913 e03c 39d1 30bd fde6 593d cd18 973d
00000140: 3be5 aabc 20ef 14bd b23b fcbd 2446 87bd
00000150: 3ef6 183b ae03 34bd d0c2 36be 0fcd 45bd
00000160: eb78 c23c afbc 483d a71c 9d3c 75fe b0bd
00000170: 68e5 57bd 6e89 b7ba 5cab da3d 35af fe3c
00000180: 17c7 853c 5692 893d cf97 93bd 6b89 eabd
00000190: 5965 3bbe a67c e4bd 93d6 c3bd 391a 1cbd
000001a0: a631 8a3d 5e78 59bd e1ec 1ebc 2a4f bd3d
000001b0: 9385 debc acca a73d 4fe9 01bd 7920 b83d
000001c0: f073 763d 13f1 dbbc 2c24 d1bd 0103 4f3d
000001d0: baaa c8bd f30f edbd 5902 1ebd 388d 68be
000001e0: cce9 42bd ecd6 b0bd fe40 733d 00a6 0d3d
000001f0: 5a85 71bd 2e26 213c 9765 cfbc d14c 30be
00000200: 0169 a4bc 8b85 59bd f03e 45be 4ce9 80bc
00000210: 3b78 073c 7b32 a5bd 996e 9e3b 9ae5 f53d
00000220: 9789 78bd bd01 c13d b1a3 ef3d bccc 573d
00000230: fcde a53d 36ae 93be 04d2 7c3c acea f13c
00000240: 2bc2 01bd 2641 25be 4584 29bb c74f cb3d
00000250: 2856 043e 1182 2dbe dbfb 773d b7b5 0b3c
00000260: 0f78 b7bd 630e b23d 66d2 1a3c 1845 e83d
00000270: de0b 13bd 4557 123d fe03 1fbd b454 bb3d
00000280: 40a6 f73b 098b d2bb 66c0 20bc 6a8d 2abd
00000290: 45bf 3c3e a9d4 43bd b126 33bd 0722 c3bd
000002a0: e86e 053e ae39 2e3e 4555 82bd e6d9 653c
000002b0: c8fb 3c3e 4f1a dfbd 22c0 833d 5d2e 443d
000002c0: 2a10 dcbd 9963 ad3c 3692 42bd 872e 80bc
000002d0: 682f 1d3d c529 7cbd 01e6 babd a3b6 b8bb
000002e0: 0ccf 143e 1886 093d c4d4 b43c 11ee 0b3e
000002f0: 6728 a7bd 7024 bcbd fa85 0c3e 65e6 0ebe
00000300: 0218 103d 5844 d53c 1b30 75bc 7905 9a3d
00000310: 963d 33bd 9bf5 e63d 8005 5abd f01c 963a
00000320: 64a9 02bc 7e20 a03d 08a5 f93d f498 17bd
00000330: 48ce debd 464b 133e 43d5 90bd 51c8 893d
00000340: 4b35 313c 7486 bd3d 4821 2bbd eb83 adbc
00000350: 830b db3d 00c8 ad3c 7762 8b3c e509 f83d
00000360: 2f8a c8bd d794 6c3d 0e93 f8bd b048 c13d
00000370: 69c7 2e3e 68a5 0ebd f7be 87bd adf8 853d
00000380: 72cc ba3d db59 173c efa8 163e f89e 2c3e
00000390: 7214 b43d 5193 213d f8f1 03bc c520 983d
000003a0: cf8a ca3d b4a6 f43c c4d8 acbb 7660 b1bd
000003b0: 5dc9 39bd 2639 2dbc 9ce2 fabd 26cd 283e
000003c0: 2174 9b3d 2df9 11bd 9a49 423d c45a c23c
000003d0: 42e1 903d d151 ad3d aadc c13d 8e8e 863d
000003e0: 6de4 ce3d 2d5a 85bd 0ebc 643c 73d9 63bd
000003f0: 17af 96bd be44 03bd 230b ab3b 8234 b33d

network_body._body_endoder.seq_layers.4.bias f4 [128]
-0.0134443315 -0.002655922 0.004524417 -0.009788739 -0.017439583 0.012953709 -0.016831145 0.046526197
0.031361386 -0.014537488 0.03499448 -0.004906226 -0.013438608 -0.00011220027 0.010186259 0.037072502
0.022775615 -0.019981999 0.03337566 -0.029467333 -0.007668006 -0.013493638 -0.0016540345 0.016496545
0.037751447 0.012681109 0.044300303 0.029049376 0.036328606 0.041235007 0.044266354 -0.0074088736
-0.022414606 0.029289203 0.03437466 -0.020085514 -0.012881564 0.016505007 -0.018111298 -0.0042325202
-0.013886833 0.009031061 0.015647786 0.04181546 -0.018246252 0.050804146 0.0005400284 -0.017785633
-0.014040882 -0.014140447 0.039280046 -0.0067035337 -0.011670417 -0.01784068 -0.0064080316 0.0028326942
0.01884289 -0.008035061 0.051079776 0.012388686 0.032372918 -0.011567447 0.03753118 -0.01798668
0.042717587 -0.014700204 0.02378996 -0.012481001 0.017795369 -0.0065315007 0.019746464 -0.004210497
-0.007673926 -0.014831995 0.025940381 0.03474987 0.03205915 0.015336193 0.040369283 0.025380313
0.016905831 0.035570756 -0.020192975 -0.016803168 -0.015912367 -0.016260248 0.0057949624 0.044965584
-0.0044105602 -0.001435998 0.03400617 -0.00053556246 0.03992614 0.016347831 -0.025982803 -0.024617381
0.040752057 -0.008150288 0.036019634 0.024642354 -0.012608234 -0.027337888 0.0154324705 -0.012608268
0.00028828246 0.028792147 0.04546886 0.040061817 0.0014212095 -0.015741056 0.035995297 -0.012878553
0.041443866 0.041155007 0.010480978 0.03744282 0.032569963 -0.024070043 0.0002703165 -0.0076232967
-0.03142481 -0.00023856839 -0.012633835 -0.011229446 -0.015804643 0.025829192 0.04402874 0.045955386
00000000: 9d45 5cbc fa0e 2ebb 9041 943b f260 20bc
00000010: 75dd 8ebc cb3b 543c 78e1 89bc 4192 3e3d
00000020: cc74 003d a52e 6ebc 5f56 0f3d 68c4 a0bb
00000030: 9b2d 5cbc 104d ebb8 44e4 263c 56d9 173d
00000040: ed93 ba3c 4ab1 a3bc ebb4 083d 7a65 f1bc
00000050: e543 fbbb 6b14 5dbc 30cc d8ba c323 873c
00000060: 43a1 1a3d 6dc4 4f3c 3c74 353d f5f8 ed3c
00000070: 4ecd 143d 0ae6 283d a350 353d 23c6 f2bb
00000080: d69e b7bc e9ef ef3c 72cc 0c3d 608a a4bc
00000090: 320d 53bc 8235 873c 255e 94bc f4b0 8abb
000000a0: 9985 63bc 04f7 133c c92f 803c b046 2b3d
000000b0: 2a79 95bc 0218 503d b190 0d3a 2db3 91bc
000000c0: ba0b 66bc 55ad 67bc 1de4 203d 51a9 dbbb
000000d0: 4735 3fbc 9e26 92bc 77fa d1bb b9a4 393b
000000e0: 685c 9a3c 7da5 03bc 0739 513d eaf9 4a3c
000000f0: 7799 043d 6485 3dbc 4bba 193d cd58 93bc
00000100: a3f8 2e3d 20d9 70bc 2ae3 c23c 1d7d 4cbc
00000110: 98c7 913c 3306 d6bb 56c3 a13c 35f8 89bb
00000120: 8f75 fbbb e501 73bc ec80 d43c e155 0e3d
00000130: 7550 033d a844 7b3c 435a 253d 60ea cf3c
00000140: 197e 8a3c a4b2 113d bd6b a5bc cca6 89bc
00000150: a75a 82bc 3634 85bc abe3 bd3b d52d 383d
00000160: 7686 90bb 1938 bcba 0e4a 0b3d fd64 0cba
00000170: 9889 233d e3eb 853c e3d9 d4bc 64aa c9bc
00000180: a1eb 263d c988 05bc 5389 133d c3de c93c
00000190: c492 4ebc b5f3 dfbc 79d8 7c3c e992 4ebc
000001a0: 9e24 9739 82dd eb3c 8e3d 3a3d dc17 243d
000001b0: e147 ba3a 63f3 80bc ce6f 133d 9100 53bc
000001c0: 0bc1 293d 2792 283d 68b8 2b3c a45d 193d
000001d0: 1568 053d 8a2e c5bc 44b9 8d39 d9cc f9bb
000001e0: 4db7 00bd 3728 7ab9 25fe 4ebc b6fb 37bc
000001f0: bd78 81bc be97 d33c 7b57 343d b73b 3c3d

action_model._continuous_distribution.log_sigma f4 [1, 2]
-0.17224209 0.053871367
00000000: 3b60 30be 39a8 5c3d

action_model._continuous_distribution.mu.weight f4 [2, 128]
-0.026078086 -0.040667426 -0.05230424 0.022575527 -0.036864933 0.034605954 0.024704484 -0.011915694
0.027882174 -0.00068679126 -0.011184856 -0.057678375 0.013488665 -0.04391688 0.06110794 0.00078325154
0.04654488 0.02638996 -0.0019046325 0.02086905 -0.004440306 0.024636166 -0.00148151 0.006516034
0.026727764 0.022420634 -0.0075000483 -0.014967356 0.0029026715 -0.00021121633 0.005318841 -0.040178057
0.026619622 -0.037220336 0.0029649185 0.010753396 -0.01044758 0.066794336 0.025717786 -0.040070537
-0.017573997 0.034800574 0.0152154695 -0.010689041 -0.023343151 0.019818896 -0.044030502 0.02979046
0.03249828 0.030042391 0.015252062 -0.059098195 0.037071742 0.029670026 0.040176816 0.069056176
0.030952672 -0.040968608 -0.0031865805 -0.04123549 -0.028837977 0.035237752 0.0064715757 -0.02983031
-0.008319073 -0.006663651 0.015145787 -0.028650882 -0.0682645 0.0070503633 -0.06564097 -0.02529701
-0.020548807 -0.03290895 -0.014797944 0.018795526 0.011453649 -0.023558676 -0.00096078735 0.019290632
0.0637022 -0.026086304 -0.010116346 -0.0024185688 0.013572959 0.035911668 0.082400896 -0.027351273
0.037676547 0.049454365 0.00973096 -0.044519518 -0.0064220773 -0.028745405 0.03460106 -0.0028542045
0.007045725 -0.018659646 0.0039033021 0.010268763 0.010781986 -0.0041422998 0.06161637 -0.019572094
0.07379674 0.014489916 0.015935853 0.00041736173 0.03222104 0.027587118 -0.032523237 0.042858046
0.015383186 -0.010581723 -0.06744047 0.0059242533 -0.028732589 0.00506957 0.047822904 0.039001416
-0.0006009115 0.018410886 -0.02461738 -0.055780113 -0.020196848 0.012596889 0.025642503 -0.02453136
-0.037085276 -0.01897941 -0.03141362 0.0067073507 -0.05563739 0.013857253 -0.038624734 0.038237598
0.028315822 -0.04643959 0.05283142 -0.024993822 -0.041720822 0.00096045464 -0.021830095 0.057315532
0.013515709 -0.060673274 0.051519897 -0.044758067 -0.061309427 -0.018644644 -0.0035315668 0.0041538165
0.05472231 0.017928299 0.05259892 0.031759355 0.05209555 0.043567397 0.073491335 0.0012745021
-0.0147252595 0.03468464 0.036380492 -0.075415716 -0.075998664 0.010541079 -0.018389715 -0.03448697
-0.053655114 0.017168516 0.0059955264 0.03642875 -0.054882977 0.055896536 -0.005448366 -0.021849334
-0.036368567 -0.033192188 0.0663624 -0.021254195 -0.04965646 -0.040265672 -0.007364022 -0.01854517
0.016890425 -0.01483476 0.05342875 0.01263015 0.06011656 -0.021505972 0.037208937 -0.02385123
0.026638243 -0.04347748 0.02678369 -0.035970762 -0.0059440373 -0.0014000345 0.024485175 -0.061198883
-0.014960265 -0.048518784 0.026170602 0.043064203 0.028580006 0.013149109 0.038116068 0.030230839
-0.024180345 0.050381318 -0.036624923 -0.06236726 -0.01970244 -0.0447456 -0.007965803 0.07061038
-0.010607469 -0.04305092 0.028530618 -0.051605366 0.057518966 0.011742279 -0.024462566 -0.02795755
0.045888998 -0.03985042 0.039059017 0.023810562 -0.06705042 -0.00094705686 0.003413489 -0.064885244
-0.026691059 0.025967974 0.06411034 0.060539845 0.0011400627 -0.038224947 0.04927743 -0.032041144
0.06547116 0.052417286 -0.0039764484 0.037336014 0.04244019 -0.016509637 -0.033611745 -0.006194782
-0.042684387 -0.0030990955 -0.061832912 -0.047853976 -0.029086303 0.028309755 0.038302083 0.050803263
00000000: b6a1 d5bc e392 26bd f93c 56bd 50f0 b83c
00000010: afff 16bd f9be 0d3d 0f61 ca3c 0b3a 43bc
00000020: 2869 e43c c809 34ba b040 37bc 2940 6cbd
00000030: 90ff 5c3c 30e2 33bd 524c 7a3d 1f53 4d3a
00000040: d8a5 3e3d c22f d83c dda4 f9ba 92f5 aa3c
00000050: fd7f 91bb c9d1 c93c 3a2f c2ba 7484 d53b
00000060: 2ff4 da3c 7aab b73c f7c2 f5bb a439 75bc
00000070: bf3a 3e3b f479 5db9 ac49 ae3b bf91 24bd
00000080: 6511 da3c 5a74 18bd 144f 423b 032f 303c
00000090: 542c 2bbc 78cb 883d 1bae d23c 0121 24bd
000000a0: 58f7 8fbc 0c8b 0e3d 4e4a 793c 1621 2fbc
000000b0: 233a bfbc 3d5b a23c 5459 34bd 1f0b f43c
000000c0: eb1c 053d 761b f63c c9e3 793c f310 72bd
000000d0: 8ad8 173d 8e0e f33c 7290 243d 536d 8d3d
000000e0: 7590 fd3c b3ce 27bd f3d5 50bb 8ce6 28bd
000000f0: 9f3d ecbc 7655 103d 830f d43b b25e f4bc
00000100: b94c 08bc c25a dabb 0926 783c 41b5 eabc
00000110: 42ce 8bbd bc06 e73b c66e 86bd ad3b cfbc
00000120: f955 a8bc 89cb 06bd 1373 72bc 13f9 993c
00000130: 16a8 3b3c 20fe c0bc 59dd 7bba 6307 9e3c
00000140: 4d76 823d f2b2 d5bc 08bf 25bc da80 1ebb
00000150: 1e61 5e3c 1d18 133d cdc1 a83d c70f e0bc
00000160: b952 1a3d a990 4a3d 9b6e 1f3c 195a 36bd
00000170: 4a70 d2bb 7c7b ebbc d7b9 0d3d 9b0d 3bbb
00000180: d3df e63b 1ddc 98bc 8bce 7f3b 503e 283c
00000190: eda6 303c 21bc 87bb 7261 7c3d a855 a0bc
000001a0: bf22 973d 1d67 6d3c e88b 823c 58d1 da39
000001b0: 36fa 033d 61fe e13c 1637 05bd eb8b 2f3d
000001c0: c209 7c3c f75e 2dbc 3b1e 8abd 3d20 c23b
000001d0: 9b60 ebbc a31e a63b f3e1 433d f3bf 1f3d
000001e0: 7d86 1dba 6dd2 963c 63aa c9bc b079 64bd
000001f0: dc73 a5bc 2f63 4e3c 3a10 d23c fef5 c8bc
00000200: bbe6 17bd b57a 9bbc 91ab 00bd 56c9 db3b
00000210: 08e4 63bd 8809 633c f834 1ebd 079f 1c3d
00000220: 95f6 e73c 7137 3ebd c265 583d d8bf ccbc
00000230: 74e3 2abd 05c7 7b3a 07d5 b2bc b1c3 6a3d
00000240: fe70 5d3c 8a84 78bd 8706 533d 3c54 37bd
00000250: 981f 7bbd a7bc 98bc dc71 67bb bd1c 883b
00000260: 8024 603d 5ede 923c f771 573d 1916 023d
00000270: 2562 553d ba73 323d a082 963d 320d a73a
00000280: 3742 71bc 7b11 0e3d b603 153d 8e73 9abd
00000290: 30a5 9bbd 7db4 2c3c 07a6 96bc 3642 0dbd
000002a0: 77c5 5bbd fda4 8c3c 1f76 c43b 5036 153d
000002b0: f9cc 60bd c4f3 643d 3588 b2bb 60fd b2bc
000002c0: 35f7 14bd 88f4 07bd 03e9 873d 471d aebc
000002d0: 9264 4bbd 9eed 24bd e54d f1bb 0aec 97bc
000002e0: ca5d 8a3c 7e0d 73bc 1bd8 5a3d b0ee 4e3c
000002f0: c83c 763d 4b2d b0bc 6668 183d a863 c3bc
00000300: 7238 da3c 7115 32bd 7869 db3c 1456 13bd
00000310: 33c6 c2bb 5d81 b7ba 2295 c83c aeab 7abd
00000320: e61b 75bc a2bb 46bd bb63 d63c 1764 303d
00000330: 9e20 ea3c 5c6f 573c 981f 1c3d aaa6 f73c
00000340: dc15 c6bc a45c 4e3d 0404 16bd d074 7fbd
00000350: 0367 a1bc 2a47 37bd 0083 02bc 2d9c 903d
00000360: f3ca 2dbc 2956 30bd 0bb9 e93c 2660 53bd
00000370: 0299 6b3d b062 403c b865 c8bc 3b07 e5bc
00000380: 1af6 3b3d 323a 23bd 59fc 1f3d 5e0e c33c
00000390: bb51 89bd e943 78ba d8b4 5f3b 8ee2 84bd
000003a0: 35a7 dabc caba d43c 484c 833d a1f8 773d
000003b0: 286e 953a c391 1cbd 21d7 493d 933d 03bd
000003c0: be15 863d 82b3 563d de4c 82bb a6ed 183d
000003d0: c4d5 2d3d 383f 87bc 78ac 09bd 99fd cabb
000003e0: d3d5 2ebd 321a 4bbb 8244 7dbd 8802 44bd
000003f0: 6646 eebc dce9 e73c a5e2 1c3d 1517 503d

action_model._continuous_distribution.mu.bias f4 [2]
-0.0024065676 0.030951018
00000000: 81b7 1dbb fd8c fd3c

onnx::Div_66 f4 [504]
0.4810722 0.00032433853 0.29017714 0.3399034 0.493466 0.00032433853 0.25660777 0.32785302
0.4715153 0.00032433853 0.22743626 0.31840023 0.49370176 0.00032433853 0.089211345 0.22735934
0.4260499 0.00032433853 0.082470745 0.21344894 0.44658697 0.00032433853 0.055944186 0.19780846
0.49996346 0.00032433853 0.0655505 0.21406722 0.40087113 0.00032433853 0.061538752 0.21384916
0.39551955 0.00032433853 0.083296664 0.19469997 0.37771377 0.00032433853 0.090703286 0.2187349
0.35915336 0.00032433853 0.10859497 0.18101439 0.36516908 0.00032433853 0.13513908 0.22739755
0.39752263 0.00032433853 0.12647735 0.1797997 0.36978266 0.00032433853 0.2278112 0.23717384
0.39186993 0.00032433853 0.13901795 0.17557642 0.38205782 0.00032433853 0.2966812 0.26283073
0.35532627 0.00032433853 0.17935349 0.19723253 0.41454908 0.00032433853 0.3517736 0.27652687
0.38740706 0.00032433853 0.25912848 0.23922631 0.3946515 0.00032433853 0.33332112 0.26846862
0.3946515 0.00032433853 0.33332112 0.2684686 0.48066014 0.00032433853 0.29024786 0.33925462
0.49367842 0.00032433853 0.25670752 0.3272065 0.47177744 0.00032433853 0.22748303 0.31780118
0.4938983 0.00032433853 0.08925822 0.2267158 0.42622906 0.00032433853 0.082496606 0.2128818
0.44596672 0.00032433853 0.05597451 0.19712636 0.49996173 0.00032433853 0.06556241 0.21344903
0.40034592 0.00032433853 0.061591215 0.21312474 0.39490432 0.00032433853 0.08330227 0.19403687
0.37713468 0.00032433853 0.090884835 0.2179969 0.35837936 0.00032433853 0.10859861 0.18028095
0.36449945 0.00032433853 0.13522248 0.22669291 0.39704928 0.00032433853 0.1264796 0.17898561
0.36913544 0.00032433853 0.22786582 0.23645337 0.39132127 0.00032433853 0.1390295 0.17473802
0.38146988 0.00032433853 0.2968426 0.26221928 0.35459122 0.00032433853 0.17943348 0.1965251
0.41410828 0.00032433853 0.35228112 0.2760761 0.38657856 0.00032433853 0.259476 0.23856427
0.39408267 0.00032433853 0.33395997 0.26795897 0.39408267 0.00032433853 0.33395997 0.26795897
0.48023745 0.00032433853 0.29031807 0.33860102 0.49388906 0.00032433853 0.25680682 0.32655814
0.47206697 0.00032433853 0.22752982 0.31719092 0.49409762 0.00032433853 0.0893032 0.22606896
0.42643318 0.00032433853 0.08252128 0.21230045 0.44533843 0.00032433853 0.05600296 0.19644208
0.49995306 0.00032433853 0.065572746 0.21281257 0.3998013 0.00032433853 0.061652075 0.2123886
0.39427072 0.00032433853 0.083306566 0.19335805 0.3765037 0.00032433853 0.09107616 0.21723121
0.3575297 0.00032433853 0.10860221 0.17952333 0.36383605 0.00032433853 0.13531007 0.22595909
0.39646512 0.00032433853 0.12648194 0.17813985 0.36849445 0.00032433853 0.22792007 0.23571272
0.3908076 0.00032433853 0.13904093 0.17387763 0.38091797 0.00032433853 0.29697546 0.26159054
0.35388097 0.00032433853 0.17950071 0.19580461 0.41368547 0.00032433853 0.3527767 0.27561572
0.3858012 0.00032433853 0.259763 0.23788783 0.3935316 0.00032433853 0.33458003 0.267431
0.3935316 0.00032433853 0.33458003 0.267431 0.47980615 0.00032433853 0.29039282 0.33792403
00000000: 184f f63e fb0b aa39 1992 943e d207 ae3e
00000010: 93a7 fc3e fb0b aa39 1862 833e 5adc a73e
00000020: 746a f13e fb0b aa39 0de5 683e 5b05 a33e
00000030: 7ac6 fc3e fb0b aa39 70b4 b63d e3d0 683e
00000040: 3623 da3e fb0b aa39 6ce6 a83d 5c92 5a3e
00000050: 0ca7 e43e fb0b aa39 bb25 653d 4d8e 4a3e
00000060: 36fb ff3e fb0b aa39 573f 863d 7034 5b3e
00000070: fb3e cd3e fb0b aa39 0f10 7c3d 46fb 5a3e
00000080: 8a81 ca3e fb0b aa39 7197 aa3d 6e5f 473e
00000090: b363 c13e fb0b aa39 a5c2 b93d 0bfc 5f3e
000000a0: f3e2 b73e fb0b aa39 0a67 de3d d65b 393e
000000b0: 71f7 ba3e fb0b aa39 e661 0a3e e7da 683e
000000c0: 1688 cb3e fb0b aa39 4783 013e 6a1d 383e
000000d0: 2754 bd3e fb0b aa39 5747 693e b3dd 723e
000000e0: 2da3 c83e fb0b aa39 b95a 0e3e 4eca 333e
000000f0: 159d c33e fb0b aa39 99e6 973e c091 863e
00000100: 53ed b53e fb0b aa39 71a8 373e 53f7 493e
00000110: c73f d43e fb0b aa39 ab1b b43e ee94 8d3e
00000120: 385a c63e fb0b aa39 7dac 843e bef7 743e
00000130: c30f ca3e fb0b aa39 11a9 aa3e b874 893e
00000140: c30f ca3e fb0b aa39 11a9 aa3e b774 893e
00000150: 1619 f63e fb0b aa39 5e9b 943e c8b2 ad3e
00000160: 6bc3 fc3e fb0b aa39 2b6f 833e 9c87 a73e
00000170: d08c f13e fb0b aa39 50f1 683e d6b6 a23e
00000180: 3de0 fc3e fb0b aa39 03cd b63d 3028 683e
00000190: b23a da3e fb0b aa39 fbf3 a83d b0fd 593e
000001a0: c055 e43e fb0b aa39 8745 653d 7edb 493e
000001b0: fcfa ff3e fb0b aa39 9645 863d 6292 5a3e
000001c0: 24fa cc3e fb0b aa39 1247 7c3d 5f3d 5a3e
000001d0: e630 ca3e fb0b aa39 619a aa3d 9ab1 463e
000001e0: cc17 c13e fb0b aa39 d421 ba3d 943a 5f3e
000001f0: 807d b73e fb0b aa39 f368 de3d 929b 383e
00000200: ac9f ba3e fb0b aa39 c377 0a3e 3022 683e
00000210: 0b4a cb3e fb0b aa39 de83 013e 0148 373e
00000220: 52ff bc3e fb0b aa39 a855 693e d520 723e
00000230: 435b c83e fb0b aa39 c05d 0e3e 86ee 323e
00000240: 0550 c33e fb0b aa39 c1fb 973e 9b41 863e
00000250: fb8c b53e fb0b aa39 69bd 373e e03d 493e
00000260: 0006 d43e fb0b aa39 315e b43e d959 8d3e
00000270: a0ed c53e fb0b aa39 0ada 843e 314a 743e
00000280: 34c5 c93e fb0b aa39 cdfc aa3e eb31 893e
00000290: 34c5 c93e fb0b aa39 cdfc aa3e eb31 893e
000002a0: afe1 f53e fb0b aa39 92a4 943e 1d5d ad3e
000002b0: 07df fc3e fb0b aa39 2f7c 833e a132 a73e
000002c0: c3b2 f13e fb0b aa39 94fd 683e d966 a23e
000002d0: 5dfa fc3e fb0b aa39 99e4 b63d 9f7e 673e
000002e0: 7355 da3e fb0b aa39 eb00 a93d 4a65 593e
000002f0: 6603 e43e fb0b aa39 5c63 653d 1d28 493e
00000300: d9f9 ff3e fb0b aa39 014b 863d 8aeb 593e
00000310: c2b2 cc3e fb0b aa39 e386 7c3d 667c 593e
00000320: dadd c93e fb0b aa39 a29c aa3d a7ff 453e
00000330: 18c5 c03e fb0b aa39 2386 ba3d dc71 5e3e
00000340: 220e b73e fb0b aa39 d66a de3d f7d4 373e
00000350: b848 ba3e fb0b aa39 b98e 0a3e d261 673e
00000360: 7afd ca3e fb0b aa39 7b84 013e 4b6a 363e
00000370: 4eab bc3e fb0b aa39 e163 693e ad5e 713e
00000380: ef17 c83e fb0b aa39 bf60 0e3e fa0c 323e
00000390: ae07 c33e fb0b aa39 2b0d 983e 32ef 853e
000003a0: e32f b53e fb0b aa39 09cf 373e 0181 483e
000003b0: 95ce d33e fb0b aa39 269f b43e 811d 8d3e
000003c0: bc87 c53e fb0b aa39 a8ff 843e de98 733e
000003d0: f97c c93e fb0b aa39 134e ab3e b7ec 883e
000003e0: f97c c93e fb0b aa39 134e ab3e b7ec 883e
000003f0: 27a9 f53e fb0b aa39 5eae 943e 6104 ad3e

onnx::Div_69 f4 [22]
13.5941925 0.22305407 5.9715376 0.0045059817 0.23516837 0.006012031 0.13219264 0.012881732
0.0055685905 0.0124291545 1.06055 0.48045895 0.7598366 0.0040042913 0.179789 0.0063711572
0.10699677 1.1295582 0.47509986 0.5286785 12.991998 30.159029
00000000: d081 5941 4968 643e d616 bf40 eaa6 933b
00000010: facf 703e 9200 c53b 825d 073e e60d 533c
00000020: b978 b63b a7a3 4b3c 1ac0 873f b7fe f53e
00000030: a784 423f 6e36 833b 9c1a 383e 24c5 d03b
00000040: 1f21 db3d 5d95 903f 4a40 f33e 7957 073f
00000050: 39df 4f41 b145 f141
