TrainedNetwork/truck1.onnx (onnx, 414278 bytes, 13 tensors)

network_body.observation_encoder.processors.0.normalizer.running_mean f4 [504]
000000 69 fc 18 3f 00 00 00 00 13 e0 eb 3d b1 f0 09 3f
       0.5976015 0.0 0.11517348 0.5388289
000010 a1 e1 d7 3e 00 00 00 00 d5 42 80 3d a1 55 0a 3f
       0.4216433 0.0 0.06262747 0.5403691
000020 f4 14 ef 3e 00 00 00 00 89 8a 44 3d 56 27 02 3f
       0.46695673 0.0 0.04798368 0.5084127
000030 80 40 ee 3e 00 00 00 00 a2 36 08 3b bc 7e cf 3e
       0.46533585 0.0 0.0020784517 0.40526378
000040 fd 1d c2 3e 00 00 00 00 28 aa 1b 3d 2a 44 da 3e
       0.37913504 0.0 0.03800407 0.4263013
000050 f2 ab 17 3f 00 00 00 00 f9 7c 89 3b 3c 73 d4 3e
       0.5924674 0.0 0.004195806 0.41494167
000060 0a 9c 0b 3f 00 00 00 00 9d 9d e4 3d 6c d9 02 3f
       0.5453497 0.0 0.11162875 0.5111301
000070 22 58 40 3f 00 00 00 00 42 d0 0e 3c 14 04 e7 3e
       0.7513448 0.0 0.008716645 0.451203
000080 71 0b 1d 3f 00 00 00 00 d9 2c 3f 3e cc da 14 3f
       0.61345583 0.0 0.18669452 0.5814636
000090 13 4f 41 3f 00 00 00 00 52 cb 5f 3c 14 5a e6 3e
       0.7551128 0.0 0.013659315 0.449906
0000a0 48 07 25 3f 00 00 00 00 30 2e 5e 3e e8 a8 22 3f
       0.64464235 0.0 0.21697307 0.6353898
0000b0 3e 7d 44 3f 00 00 00 00 48 97 be 3c 5c c9 01 3f
       0.76753604 0.0 0.023265496 0.50697875
0000c0 c9 b9 1c 3f 00 00 00 00 2e 8e 67 3e f4 42 2e 3f
       0.61220986 0.0 0.22612831 0.6807091
0000d0 f2 bb 41 3f 00 00 00 00 e3 f7 b8 3d cd 15 16 3f
       0.75677407 0.0 0.09031656 0.58627015
0000e0 f7 d3 07 3f 00 00 00 00 7b 44 74 3e c7 3a 2c 3f
       0.5305781 0.0 0.23854248 0.6727719
0000f0 e8 27 42 3f 00 00 00 00 8d 0d 0d 3e da 31 1c 3f
       0.7584214 0.0 0.137747 0.6101357
000100 d3 3f 0a 3f 00 00 00 00 89 22 81 3e 98 9b 26 3f
       0.5400364 0.0 0.2522166 0.6508117
000110 2f e2 37 3f 00 00 00 00 d9 77 51 3e 12 61 23 3f
       0.71829504 0.0 0.20455875 0.6381999
000120 10 b8 19 3f 00 00 00 00 89 64 8e 3e fd 35 25 3f
       0.6004648 0.0 0.27811077 0.64535505
000130 42 f8 2f 3f 00 00 00 00 b2 36 71 3e 19 93 23 3f
       0.68738186 0.0 0.23556021 0.6389633
000140 44 f8 2f 3f 00 00 00 00 a8 36 71 3e 19 93 23 3f
       0.687382 0.0 0.23556006 0.6389633
000150 14 8d 1a 3f 00 00 00 00 89 e4 eb 3d 14 3d 0a 3f
       0.6037152 0.0 0.11518199 0.5399945
000160 3d 0f db 3e 00 00 00 00 1b 48 80 3d a3 a3 0a 3f
       0.42785063 0.0 0.06263753 0.5415594
000170 cb a5 ef 3e 00 00 00 00 5d 9a 44 3d ac 60 02 3f
       0.46806177 0.0 0.047998775 0.5092876
000180 66 61 f0 3e 00 00 00 00 b9 42 08 3b 05 22 d0 3e
       0.4694931 0.0 0.0020791723 0.40650955
000190 f4 79 c4 3e 00 00 00 00 de 73 1e 3d 5f 2c db 3e
       0.38374293 0.0 0.03868472 0.4280729
0001a0 bb d5 17 3f 00 00 00 00 52 8b 89 3b d1 f7 d4 3e
       0.593105 0.0 0.0041975165 0.4159532
0001b0 62 34 0c 3f 00 00 00 00 51 17 eb 3d 39 cb 03 3f
       0.5476743 0.0 0.114790566 0.5148197
0001c0 66 6d 40 3f 00 00 00 00 c6 05 0f 3c c6 79 e7 3e
       0.7516693 0.0 0.008729404 0.45210093
0001d0 83 4f 1d 3f 00 00 00 00 4e 14 43 3e 1e eb 15 3f
       0.6144945 0.0 0.19050714 0.58561885
0001e0 43 61 41 3f 00 00 00 00 7c 6a 60 3c 00 c5 e6 3e
       0.75539035 0.0 0.013697263 0.45072174
0001f0 51 2e 25 3f 00 00 00 00 2a 98 62 3e 38 d7 23 3f
       0.645238 0.0 0.22128358 0.6400027
000200 fe 8b 44 3f 00 00 00 00 b9 c6 be 3c 6d fa 01 3f
       0.7677611 0.0 0.023288118 0.50772744
000210 6b ce 1c 3f 00 00 00 00 91 61 6c 3e 45 8a 2f 3f
       0.6125247 0.0 0.23084094 0.6857036
000220 5d ca 41 3f 00 00 00 00 70 03 b9 3d ba 4a 16 3f
       0.75699407 0.0 0.09033859 0.58707774
000230 13 e1 07 3f 00 00 00 00 02 60 79 3e 95 93 2d 3f
       0.5307781 0.0 0.2435303 0.6780332
000240 27 38 42 3f 00 00 00 00 31 85 0d 3e d7 8d 1c 3f
       0.7586693 0.0 0.1382034 0.6115393
000250 f8 4c 0a 3f 00 00 00 00 a8 ce 83 3e 6d 03 28 3f
       0.54023695 0.0 0.25743604 0.6563023
000260 fb ef 37 3f 00 00 00 00 4d a9 53 3e fa c9 24 3f
       0.71850556 0.0 0.20670052 0.6437069
000270 b2 d6 19 3f 00 00 00 00 07 32 91 3e b2 b6 26 3f
       0.60093224 0.0 0.2835848 0.6512252
000280 9e 08 30 3f 00 00 00 00 f1 22 77 3e 89 28 25 3f
       0.6876315 0.0 0.24134423 0.64514977
000290 9f 08 30 3f 00 00 00 00 e7 22 77 3e 89 28 25 3f
       0.68763155 0.0 0.24134408 0.64514977
0002a0 57 26 1c 3f 00 00 00 00 a3 e8 eb 3d 0d 83 0a 3f
       0.60996 0.0 0.11518981 0.5410622
0002b0 3d 3d de 3e 00 00 00 00 61 4d 80 3d 83 eb 0a 3f
       0.43406096 0.0 0.06264759 0.5426561
0002c0 2e 81 f0 3e 00 00 00 00 b4 ab 44 3d 35 9b 02 3f
       0.46973556 0.0 0.04801531 0.5101808
0002d0 9d a5 f2 3e 00 00 00 00 e6 4e 08 3b 75 bc d0 3e
       0.47391978 0.0 0.002079898 0.4076878
0002e0 da 9f c6 3e 00 00 00 00 a5 ff 22 3d 38 3e dc 3e
       0.38793832 0.0 0.039794583 0.4301622
0002f0 50 02 18 3f 00 00 00 00 a2 99 89 3b 78 7b d5 3e
       0.5937853 0.0 0.0041992227 0.41695762
000300 89 ae 0c 3f 00 00 00 00 00 ba f2 3d c8 dc 04 3f
       0.5495382 0.0 0.11851883 0.51899385
000310 11 83 40 3f 00 00 00 00 21 46 0f 3c 95 ef e7 3e
       0.7519999 0.0 0.008744747 0.45299974
000320 ca 9d 1d 3f 00 00 00 00 e4 a0 47 3e 02 23 17 3f
       0.6156889 0.0 0.19494969 0.5903779
000330 6b 72 41 3f 00 00 00 00 f6 33 61 3c 11 35 e7 3e
       0.7556521 0.0 0.013745299 0.45157674
000340 5f 69 25 3f 00 00 00 00 ef 3e 67 3e d1 15 25 3f
       0.6461391 0.0 0.22582601 0.64486414
000350 d0 9a 44 3f 00 00 00 00 60 02 bf 3c 3a 2d 02 3f
       0.76798725 0.0 0.023316562 0.5085026
000360 ab e8 1c 3f 00 00 00 00 9c 25 71 3e 07 cf 30 3f
       0.61292523 0.0 0.23549503 0.690659
000370 24 d8 41 3f 00 00 00 00 bb 0f b9 3d 59 81 16 3f
       0.7572043 0.0 0.090362035 0.5879112
000380 b9 ee 07 3f 00 00 00 00 58 63 7e 3e 91 e6 2e 3f
       0.53098637 0.0 0.24842584 0.68320566
000390 53 48 42 3f 00 00 00 00 b1 e1 0d 3e a7 e8 1c 3f
       0.7589161 0.0 0.13855626 0.612925
0003a0 da 59 0a 3f 00 00 00 00 41 6e 86 3e bd 64 29 3f
       0.5404335 0.0 0.26255992 0.6616934
0003b0 61 fd 37 3f 00 00 00 00 6e 32 55 3e 22 30 26 3f
       0.71871 0.0 0.20820019 0.64917195
0003c0 ab f1 19 3f 00 00 00 00 e3 f4 93 3e 2f 31 28 3f
       0.6013438 0.0 0.2889777 0.6570005
0003d0 85 19 30 3f 00 00 00 00 d3 08 7d 3e 1d bd 26 3f
       0.6878894 0.0 0.24710397 0.65132314
0003e0 87 19 30 3f 00 00 00 00 c9 08 7d 3e 1d bd 26 3f
       0.6878895 0.0 0.24710383 0.65132314
0003f0 c2 c0 1d 3f 00 00 00 00 df ec eb 3d da c2 0a 3f
       0.6162225 0.0 0.11519789 0.5420357

network_body.observation_encoder.processors.1.normalizer.running_mean f4 [22]
000000 eb 21 96 c1 30 b2 8d c1 06 8a 95 41 a6 12 1a 3c
       -18.766562 -17.712006 18.692394 0.00940386
000010 5d c2 ed 3e cc 30 90 bc b1 11 55 bf a6 65 1e c2
       0.4643735 -0.017601393 -0.8323012 -39.599266
000020 05 1e 89 c1 10 cc 18 42 89 65 1f c0 c7 ef 2f be
       -17.139658 38.19928 -2.4905722 -0.17181312
000030 fa 80 af 3f 02 37 fc 3b 8c 3f 0d 3f 21 32 97 bc
       1.3711236 0.007696987 0.5517509 -0.01845652
000040 7d c5 4d bf 63 f3 39 c0 07 2a 35 be 61 0e 65 3f
       -0.8037947 -2.9054801 -0.17691813 0.89475065
000050 bc ac 57 41 93 3f 6c 42
       13.4796715 59.062084

network_body._body_endoder.seq_layers.0.weight f4 [128, 526]
000000 57 db 0c bd 32 45 8f bd 6f 79 b5 3d 9c 81 f4 3d
       -0.034388866 -0.0699562 0.08861052 0.119387835
000010 2e d6 0b 3d 97 5e 36 bd 13 e6 95 bd 86 b2 04 3d
       0.034139805 -0.0445238 -0.07319274 0.032396816
000020 90 9d 8b bd 78 1a cf bd 02 59 9d 3d 3a 22 e3 3d
       -0.06817162 -0.101124704 0.076829925 0.110905126
000030 38 00 c7 3c cc 75 a7 3c e2 92 26 3d 5c 17 9e bc
       0.024292096 0.020441912 0.040667422 -0.019298248
000040 b0 72 e6 3c 74 f4 77 bd ab cc 44 3d 48 f8 06 3e
       0.02813086 -0.060535863 0.04804675 0.1318065
000050 6a f0 01 be df 21 b5 3c 0c d0 54 3d 6b bd 01 bc
       -0.12689367 0.022110878 0.05195622 -0.007918696
000060 0b 13 13 bd c0 62 fa bc db cc 52 3d 29 8a a7 3c
       -0.035906833 -0.030564666 0.051464897 0.020451622
000070 cf 13 92 bd cc 6d 36 bd 6d e2 2b 3d 61 39 8d bd
       -0.071326844 -0.044538304 0.041963983 -0.0689571
000080 d9 05 1c 3d a1 6d a5 3c 2b 67 cb bd f9 3a 4d bd
       0.038091514 0.020193877 -0.09931787 -0.05010507
000090 ab 60 82 bd 95 ee ba bd 0d d5 a3 3d b3 03 92 bc
       -0.06366094 -0.09127537 0.079996206 -0.01782403
0000a0 46 d6 fd bd 63 3f c9 bb 8b 68 af bd 0c e5 4b bd
       -0.12394385 -0.0061415895 -0.08564862 -0.049778983
0000b0 31 fa ad bd e3 e0 7f bd 0b 16 25 3e a6 af 82 bd
       -0.08494986 -0.062470328 0.1612169 -0.063811585
0000c0 bf 9c 37 3d 0a b1 21 3c 63 f4 ae 3c 3c fc 01 be
       0.04482722 0.00986887 0.021356767 -0.12693876
0000d0 6f ca bc 3d d5 b9 ec 3c 66 3d 2f bd be 84 10 3d
       0.09218299 0.028897205 -0.042783163 0.035282843
0000e0 87 87 a3 3d 4e 31 08 3d 6a 10 29 bd 9c 2f b5 bd
       0.07984834 0.033250146 -0.04127542 -0.088469714
0000f0 ab 0d e0 bc 72 b2 8b 3d 08 ac 8b bd 68 a4 a2 bb
       -0.027350267 0.06821145 -0.06819922 -0.0049634464
000100 1c 9a 00 bd 10 e7 71 bd cc c2 83 bd be 55 d2 bc
       -0.03139697 -0.05905825 -0.06433639 -0.02567565
000110 0d 92 2c 3d 2d 80 7c 3d ab 3d 23 bd 18 11 ea bc
       0.042131472 0.061645675 -0.039853733 -0.028572604
000120 7f 9d c5 bd 2f 12 c7 3c 20 e2 3f 3d 7b 21 96 3d
       -0.096491806 0.024300663 0.04684651 0.07330605
000130 d3 c1 b4 3d 1d 8c d0 bd 55 74 8f bd d1 3b 03 bd
       0.088260315 -0.101829745 -0.070046104 -0.032039467
000140 d9 b7 58 bc b7 a7 22 3b dc 4e 3b bc 6e 9e d2 bd
       -0.013227426 0.0024819204 -0.011432376 -0.10284124
000150 2b 56 cc bb 3b e6 2a bb f2 b7 92 3d e6 d8 58 bd
       -0.006235858 -0.002607717 0.07163991 -0.052941225
000160 bb 1e b0 3d cc ac 21 3c 8b 36 71 bd 26 91 43 bd
       0.08599611 0.009867858 -0.058889907 -0.047745846
000170 4c 1e b8 3d b9 d5 50 bd 7d 39 ae 3d 9b cc b0 3d
       0.08990154 -0.05098507 0.08507059 0.086327754
000180 a3 25 d2 bd 9b 56 69 3d d4 5a 21 bd e1 5e 8b bc
       -0.10261085 0.05696736 -0.03939326 -0.017013015
000190 77 60 fb bd 30 a8 4c bd c9 9d e3 3c 79 ab 4c bc
       -0.122742586 -0.049965084 0.027785199 -0.012492054
0001a0 63 cf 82 bd 7b 2c 4f 3d 08 37 7c 3b 8b 87 09 bc
       -0.06387212 0.05057953 0.003848495 -0.008394132
0001b0 b6 25 00 bd 64 55 e7 ba 7d 89 4d bd d1 04 49 bb
       -0.031285964 -0.001764935 -0.050179947 -0.0030673037
0001c0 3c 82 44 bc 03 2c 2c 3b a0 e1 b5 3d 7b 8e 93 bd
       -0.011993941 0.002627135 0.08880925 -0.0720491
0001d0 9e 90 b5 bd 8e 10 81 3d 39 2c 84 3d 86 5a 75 3d
       -0.08865474 0.06301986 0.06453747 0.059900783
0001e0 b4 ca d0 bb c6 d5 07 3c 5c d2 07 3e ce 8e ab bc
       -0.0063718203 0.008290714 0.1326384 -0.020942118
0001f0 12 e6 5b bd 69 0f 5b 3d 6d 3c 24 3d 5f e0 db bd
       -0.05368621 0.053481493 0.04009669 -0.10736155
000200 67 89 99 bc a7 ac 94 bc bd 25 9b 3d 79 6c a5 3c
       -0.018742276 -0.018148733 0.075755574 0.020193325
000210 81 cd 61 bc e6 77 2e bd 7f 84 8f bd c6 8c 47 bd
       -0.013781906 -0.042594813 -0.070076935 -0.048718236
000220 d6 99 64 bc 87 72 97 bc be ab 73 ba 25 e4 44 bd
       -0.013952693 -0.018487228 -0.0009295306 -0.048069138
000230 17 13 5f b9 f6 23 97 bc bd dc 8d bd 42 1a ac bc
       -0.00021274049 -0.018449765 -0.06926868 -0.021008614
000240 21 eb af 3d 47 73 d0 3d c1 74 4b bc 40 3a 48 bd
       0.08589769 0.101782374 -0.012417973 -0.048883677
000250 83 be 05 bb ea 47 e6 bd 00 f4 ab ba 09 a4 bb bc
       -0.0020407743 -0.11244185 -0.0013118982 -0.022905366
000260 06 2b 4c bc 42 85 d1 3d 47 26 d1 3b 98 6e 9a bc
       -0.012461429 0.10230495 0.006382737 -0.018851563
000270 30 d7 d9 3b 3c b7 8d bc e7 0c 15 bd c9 8b 3c 3d
       0.006647967 -0.017299287 -0.036389258 0.046031747
000280 df 56 88 3b 7f 89 95 3c 7c 2f 0f bc 00 16 5e bb
       0.0041607465 0.01825404 -0.0087393485 -0.0033887625
000290 46 92 5f 3d 87 f8 31 3d e6 74 0e bd e2 11 95 bd
       0.054582857 0.043449905 -0.03477945 -0.072788015
0002a0 72 4e a0 bd 5c da 28 3c 99 15 72 3d db 49 11 bc
       -0.07827462 0.010305967 0.05910263 -0.008867706
0002b0 ff 2b 66 3d d3 0c 1b 3d b0 25 e2 3c a1 f2 d6 bc
       0.0561943 0.037854027 0.027605861 -0.026238741
0002c0 6f 8b 69 3d d7 90 1e 3d 48 1b 7e 3d 0b eb 50 3c
       0.05701774 0.03871235 0.062037736 0.012751351
0002d0 5c 55 0e 3e a2 dc e5 bd 03 b8 74 bd 80 02 25 bd
       0.1389975 -0.11223723 -0.0597458 -0.040285587
0002e0 27 43 dd bc 67 00 8c bc 15 e6 b4 3d 1d 4b f6 bc
       -0.02700956 -0.017090036 0.08832947 -0.030065114
0002f0 b3 1b 89 bd fc 6e cb 3c 4b b2 24 bd 0b 7e c6 3c
       -0.06694736 0.024833195 -0.040209096 0.024230024
000300 da f8 81 3c 2e d8 d5 3c 34 ec 1b 3d a2 c0 d6 3c
       0.015865732 0.02610406 0.038067058 0.026214901
000310 0e f2 9f bd 98 61 48 bc 02 8a 6f 3d ff fc 82 bd
       -0.0780984 -0.012230299 0.058481224 -0.063959114
000320 a6 ca 0f 3d ff 39 54 3d c4 4f bf bd 49 f5 60 bd
       0.03510537 0.051813122 -0.09341386 -0.054921422
000330 90 2d ce 3c 84 3c 84 3c fb 81 a5 3d 19 02 e8 3c
       0.02516821 0.016142137 0.080814324 0.028321313
000340 43 d5 8f bd 37 3e bb 3c b9 5e 3f bd 45 bb 42 bd
       -0.07023098 0.022856815 -0.046721194 -0.047541875
000350 e8 ae f6 3b cc 8e 97 3c 9e 6b 53 3b 8f 7f 9c 3d
       0.0075281747 0.018500708 0.003226019 0.07641517
000360 f2 e4 d6 3c 42 1d 15 3c 46 62 a3 bd 9f 49 86 bd
       0.026232217 0.009101214 -0.079777285 -0.06557011
000370 da c3 78 3d 5a cd 3e 3b e6 f3 ac 3a 3e c6 2d bd
       0.060733654 0.0029114098 0.0013195246 -0.042425387
000380 95 57 fa 3d ac 73 25 3d 0e a9 9d bd eb f0 6f bd
       0.12223736 0.040393516 -0.0769826 -0.058579367
000390 74 40 94 3c 7c 05 a9 bc 95 02 12 3e 7b 33 25 3d
       0.01809714 -0.020632498 0.14258797 0.0403323
0003a0 d1 3f 05 3c a4 9a e7 3c d8 ac 42 bc 07 2b 49 bb
       0.008132891 0.02827198 -0.0118820295 -0.0030695812
0003b0 c8 5a cc 3c ec 6e 76 3c 59 a1 9e 3c 26 0c 79 ba
       0.024945632 0.015041094 0.019364046 -0.00095004064
0003c0 84 5c cf 3c 2c d4 e5 bc c2 b4 e9 bc ac f1 bd bd
       0.02531267 -0.028055273 -0.028528575 -0.09274611
0003d0 89 f1 cf bc 9a f4 45 3b c5 81 ec bc 04 0b bf bd
       -0.025383728 0.0030205608 -0.028870473 -0.09328273
0003e0 6c 90 1f bd ec 1e bd 3d 49 96 6e bd 6f 63 da 3b
       -0.03895609 0.092344135 -0.05824879 0.0066646854
0003f0 3e 76 29 3d ef b5 b4 bc 42 90 e4 3c cf b6 4b bd
       0.04137253 -0.022059409 0.027900819 -0.049734887

network_body._body_endoder.seq_layers.0.bias f4 [128]
000000 ca e5 c1 b9 24 04 63 bd 0b 09 4c 3d 8b ce cc bb
       -0.00036983035 -0.05542387 0.04981331 -0.006250208
000010 c6 5b b8 bd 53 01 59 3c 14 37 55 3d 12 96 c0 bd
       -0.090018794 0.013244945 0.05205448 -0.09403624
000020 74 25 56 3c 33 05 d0 bc a0 5f fa 3c 8c d9 a7 bd
       0.013070453 -0.025393104 0.030563176 -0.08195791
000030 22 43 0e bd 19 5b 9d bd db 4b 9f 3b 9a a7 33 bd
       -0.03473199 -0.07683391 0.0048613376 -0.04386101
000040 c1 b8 2f bd cc e5 11 bc ae 16 40 bb ea d1 5e 3c
       -0.042900804 -0.0089048855 -0.0029310393 0.013599852
000050 d1 90 8b bc e2 a9 1b 3d cc 9a c0 bd 9d 21 41 3d
       -0.017036827 0.03800381 -0.09404525 0.047151197
000060 59 29 8d 3c f2 6a df 3c 25 9b 5e bd b7 77 9a bd
       0.01723163 0.027272675 -0.054347176 -0.07542365
000070 4b dd eb 3b 54 d0 20 bd 5c 0c 5f bb f0 10 75 bc
       0.007198011 -0.039261177 -0.0034034466 -0.0149576515
000080 7b f8 03 bc ee 7f 92 bd b1 24 be 3c 76 1d c5 bd
       -0.008054848 -0.07153307 0.023210855 -0.0962476
000090 f4 bb e5 bd 84 59 f0 3b 0a e7 f8 bb 3f ec d9 bd
       -0.1121749 0.00733489 -0.0075959014 -0.106407635
0000a0 71 b8 d5 bc 27 63 1a bc 51 81 90 3d 9f df 84 bd
       -0.026088925 -0.009423054 0.07055915 -0.06487965
0000b0 21 ff 64 3c ca 16 79 bd c3 f9 8f bc 1a 36 3d bb
       0.013976843 -0.06081275 -0.01757515 -0.0028871358
0000c0 63 0b d3 bd d5 fa 8d bd c4 cd 20 bd 03 26 45 ba
       -0.10304906 -0.06932608 -0.039258733 -0.0007520618
0000d0 07 f1 5f bd fa 24 40 bd 5b fa 3d bd d3 af 32 bd
       -0.05467322 -0.046910264 -0.046381336 -0.04362471
0000e0 80 89 4d bd b6 e5 ab bd 2a cf cd 3c 40 3e 7d bd
       -0.05017996 -0.08393423 0.025123198 -0.061826944
0000f0 c6 96 94 bd 9a 77 d5 bc 2f 37 a3 3a e6 ef 80 bc
       -0.0725532 -0.026058007 0.0012452359 -0.015739392
000100 4c 27 01 bd 63 bf 8a 3c 1b 89 24 3d d7 44 a5 3a
       -0.031531617 0.016936963 0.040169816 0.0012609017
000110 66 df fc bd 5e 9a a5 bd f7 9e 4d bd 1e 8a f2 bd
       -0.12347297 -0.08086084 -0.05020043 -0.1184275
000120 dc 2c a8 3d e7 9b 52 bc 80 6c 6e 3c d9 e3 86 bb
       0.08211681 -0.012854553 0.014552236 -0.004116517
000130 99 9f b5 bd 9a 43 31 3d b8 3d 5f bd 33 ca eb bd
       -0.088683315 0.04327736 -0.05450222 -0.11513176
000140 95 60 1d 3d ba dd 35 bd 3a e9 02 bd bd 20 61 bc
       0.038422186 -0.044400908 -0.031960703 -0.013740716
000150 10 bc f1 bc 4c d7 d0 3b 0f 53 9b bc cf 6c b8 bd
       -0.02950862 0.0063733216 -0.018960504 -0.090051286
000160 72 b8 02 3d 3a f6 b3 3c 28 03 92 bc eb c2 54 bd
       0.031914182 0.021967996 -0.01782377 -0.0519437
000170 4c b8 19 3c ce 5f ba ba 6d 4b c2 bc 54 92 4c bd
       0.009382319 -0.0014219226 -0.023717606 -0.049944237
000180 93 3f a1 bc 59 85 00 3d 09 6c 7a bd 31 f7 fc bd
       -0.019683635 0.03137717 -0.061138187 -0.123518355
000190 30 98 42 bd 67 48 00 bd 89 84 f4 bc 1b f4 07 bd
       -0.04750842 -0.03131905 -0.029848354 -0.03319178
0001a0 d6 20 1f 3c 85 9a 68 bd 6c d2 b8 bd 56 65 fa bc
       0.009712419 -0.056787986 -0.0902451 -0.030565899
0001b0 b7 e3 1b bd 00 38 f1 bc 1a e5 0e bd d3 2f 56 bd
       -0.038058963 -0.029445648 -0.034886457 -0.052291702
0001c0 0d 4c b1 3c 76 53 6b bc aa 70 45 bd 74 99 bb 3c
       0.02164271 -0.01436316 -0.048203148 0.02290032
0001d0 ff 49 66 39 ec 2d 45 bd ef f1 95 3b 88 2e f7 bc
       0.00021962075 -0.048139498 0.00457596 -0.030173555
0001e0 7a e3 6b bc 7c ac 90 3c 87 c3 12 bd 0b 2c e6 3b
       -0.014397496 0.017660372 -0.035831 0.0070242933
0001f0 d9 8e d3 bd c3 b3 14 bd aa cd 9e bc de b8 a4 3c
       -0.103299804 -0.036304247 -0.019385178 0.020107683

network_body._body_endoder.seq_layers.2.weight f4 [128, 128]
000000 5a 09 7e bd 3b 72 c1 bd cf 65 fe bc b9 58 af bd
       -0.062020637 -0.09445616 -0.031054405 -0.085618444
000010 93 c9 46 bd b3 23 2f be fd db 55 be a5 7c 9f bc
       -0.04853208 -0.17103462 -0.208847 -0.019468615
000020 81 7a 0a bd 81 78 4e 3d 4c 56 23 3d af 64 ac bd
       -0.033808235 0.05040789 0.03987722 -0.08417641
000030 42 10 89 3d 6b 11 8b bd f5 1d fa 3d 5c a9 fa bc
       0.06692554 -0.067904316 0.12212745 -0.030598335
000040 b9 f7 2a be 1c 70 19 be 94 83 5a be cc e5 2d be
       -0.16696061 -0.14984173 -0.21339256 -0.16982192
000050 52 cd 35 3e bc c1 dc 3d 5e a6 18 be 4e 6c 96 bc
       0.17754105 0.107791394 -0.14907214 -0.01836219
000060 ef 59 b4 3d 69 74 0b bc 2d 02 54 be d0 2d 92 bd
       0.08806216 -0.008511641 -0.20703955 -0.07137644
000070 d2 e0 be bd bd b3 cb bd 4a 41 8d bd 21 38 c8 3c
       -0.09320225 -0.09946392 -0.068972185 0.024440827
000080 a6 90 08 be 75 54 3c bd 58 63 f7 3a 21 b7 e6 bd
       -0.13336429 -0.045978982 0.0018874211 -0.11265398
000090 4f 72 c2 bd f1 6f 0f 3d 24 f9 32 3d 96 e4 6d 3d
       -0.09494459 0.035018865 0.04369463 0.058079325
0000a0 8e 1f 15 3d 91 0c dd 3d 96 04 63 bd e9 99 79 bd
       0.036407046 0.107934125 -0.055424295 -0.060937796
0000b0 d2 ff b5 3d 14 4f 4b be e9 14 fc 3c 50 2e d7 3c
       0.088866845 -0.19854385 0.03077169 0.0262672
0000c0 3b bd 57 bd da 21 b5 bd 62 5e ee bd ac c8 b5 3d
       -0.0526707 -0.08844347 -0.11639096 0.08876166
0000d0 9a d6 30 be 1f 8d 92 bb d3 94 0f 3e b8 70 44 be
       -0.17269364 -0.0044723894 0.14021616 -0.19183624
0000e0 e8 f9 e5 3d 26 28 08 be 21 5a bb 3c b9 92 ec bd
       0.112293065 -0.13296565 0.022870125 -0.115514226
0000f0 dc 6c 16 3e 97 60 09 bd ca bc 62 bd 6f 9a 79 be
       0.14689964 -0.03353938 -0.055355825 -0.24375318
000100 6f e8 8c bd 4a d3 4a 3d 48 d1 9f bd e3 d8 77 bd
       -0.06880271 0.049517907 -0.07803589 -0.060509574
000110 95 0e d7 bd 77 1e 4c be 21 2a 04 be 3e 31 23 bd
       -0.10500828 -0.19933496 -0.12906696 -0.039841883
000120 33 8e ab bd fe 30 25 be 90 7b 4b be 7d b5 36 bd
       -0.08376732 -0.1613197 -0.19871354 -0.044606674
000130 56 88 88 bc 2d 0f 91 bd 59 77 90 bd d1 d8 a3 bd
       -0.016666573 -0.07082973 -0.07054014 -0.08000339
000140 4f af 63 bd dd be 1d bc 5c 87 ae 3c 47 84 0a 3e
       -0.05558711 -0.009628025 0.021304779 0.13527022
000150 60 c7 a7 3c 1e bd 8d 3d 75 9b 26 3e c0 70 0d 3a
       0.020480812 0.06920837 0.1627024 0.0005395524
000160 52 46 f1 bd 59 89 40 be f9 7a 3d 3e 9e de b3 3d
       -0.11780991 -0.18802394 0.18503942 0.08782695
000170 7b e0 07 bd 79 a3 8d bd 16 aa 42 bc 39 c0 2b 3e
       -0.033173066 -0.069159456 -0.011881372 0.16772546
000180 28 e0 00 be f3 ee 60 bd 4c 06 44 bc c4 6b 9e 3d
       -0.12585509 -0.05491538 -0.011964392 0.077353984
000190 a3 69 4e be cd 63 d3 3c 61 18 3c bd 07 05 e6 bc
       -0.20157485 0.025804425 -0.045921687 -0.02807857
0001a0 7c 42 df 3b f9 d0 55 bd 09 1d ef bd 73 18 36 3d
       0.0068133455 -0.052201245 -0.1167546 0.04445691
0001b0 95 dc 3c be 14 d8 01 be b9 fe b0 bd 8b 31 41 3b
       -0.1844352 -0.12680084 -0.086423345 0.0029478993
0001c0 ec be 02 be b6 ab 3c 3d 6a 1c 11 3e 21 e2 20 bd
       -0.12768143 0.046062194 0.14170995 -0.039278153
0001d0 d0 89 1d bd c9 c3 28 be 03 0e 4b 3e 2c d4 bc bb
       -0.038461506 -0.16480936 0.19829564 -0.0057625975
0001e0 a7 e3 1b be a4 b1 46 bd c1 cf a2 bd d5 fc 00 3e
       -0.15223561 -0.048509255 -0.07949782 0.12596448
0001f0 60 ae 29 bd 70 ff 50 be 23 09 16 bd 29 25 9d ba
       -0.041426063 -0.20409942 -0.036629807 -0.0011989224
000200 6f 05 05 3e 9f 4f f4 3d 6d b1 19 bd 8c a3 39 bc
       0.12990354 0.11929249 -0.037522722 -0.0113304965
000210 d5 e0 aa bd 70 3e 89 3b 54 b0 7b bd f6 e1 52 3d
       -0.083436646 0.0041883513 -0.061447456 0.051485024
000220 98 f3 00 3e 65 b1 0e be 9d 22 99 bb 46 e0 bd 3c
       0.12592924 -0.13934858 -0.0046733157 0.023178231
000230 fb b5 0a be 0c c3 40 bd 2a 25 33 3d 34 9e 47 be
       -0.13545983 -0.04706101 0.043736614 -0.19493943
000240 a7 5b 24 be ae 75 20 3d 51 f7 30 3e 42 0d 9b 3b
       -0.16050588 0.039174728 0.17281844 0.004731805
000250 65 23 ae 3c 62 25 fd bb 38 35 3a 3d 81 79 ff 3d
       0.021257112 -0.0077254036 0.04546091 0.12474347
000260 4e 8b 26 bd 93 7f fd 3d c4 be 8e 3d eb dd ec 3d
       -0.040660195 0.123778485 0.069699794 0.11565765
000270 2c e6 95 3d 5e ad 45 be 66 76 86 bc b1 44 58 bc
       0.073192924 -0.19304416 -0.016413879 -0.013199971
000280 b6 81 91 bd 61 7c bf bd 8d f3 01 3c a2 f2 e0 bc
       -0.071048185 -0.09349895 0.007931602 -0.027459446
000290 85 39 85 bc df 3d 06 be c2 38 59 bc 1a 92 ec bd
       -0.016262779 -0.1310954 -0.013258161 -0.11551304
0002a0 b7 05 03 be 7f 1e 81 3d a3 6a d7 3d c4 62 23 bc
       -0.12795149 0.06304645 0.10518386 -0.009972278
0002b0 f7 e9 2d be b8 4b 50 bc bc 7f 1a 3d 11 c9 e0 3d
       -0.16983782 -0.012713365 0.037719473 0.109758504
0002c0 44 38 c4 bc 7f 6a ba 3c bf a1 49 be 51 45 a2 bd
       -0.02395261 0.02275586 -0.19690607 -0.07923377
0002d0 e6 79 b4 3d ac 1f 6a bd 99 04 51 3e 75 3c 88 bd
       0.08812313 -0.05715911 0.2041191 -0.06652156
0002e0 d3 a2 28 bc 6d e2 00 be 60 f1 85 bd 44 25 da bd
       -0.010292727 -0.12586375 -0.06540179 -0.10651639
0002f0 cd a1 cc 3d 6e 57 ce 3d 68 fa a8 bd e5 a6 d2 bd
       0.099917985 0.1007527 -0.08250886 -0.10285739
000300 e0 e0 44 bd 29 0b 2f bd 5d 4f 20 3e e4 31 18 bd
       -0.04806602 -0.042735253 0.15655275 -0.037156954
000310 ff 11 86 bd a4 25 80 3d 82 56 2d bd 1e eb 16 bd
       -0.06546401 0.062571794 -0.04231883 -0.03684532
000320 93 e5 97 bd 3d dd 21 be f9 d7 43 be 83 2a 7e bc
       -0.07416835 -0.15807052 -0.19125356 -0.015513065
000330 26 2d e5 3b 08 92 eb bd b1 9a b5 bd a7 d0 82 bc
       0.0069939075 -0.115024626 -0.08867396 -0.015968634
000340 47 93 42 be 2b 7f e7 3d 6f 8a 19 be bb cd 30 3d
       -0.19001494 0.11303552 -0.14994214 0.04316495
000350 2e af 0e 3d 55 4a 5b bd 90 1a 28 3d 16 66 f8 3c
       0.034835033 -0.053537685 0.041040957 0.030322116
000360 5c 0e cf bc 9e f8 e3 b9 45 97 a9 bd 15 d0 be bd
       -0.025275402 -0.00043482048 -0.082808055 -0.09317032
000370 c4 57 bc bd a0 60 10 bd d6 e0 d1 bd 58 e2 85 3c
       -0.091964275 -0.0352484 -0.10247962 0.01634328
000380 4d d8 8d 3c 01 ea 62 bd ed b5 2d 3d 90 98 b2 3d
       0.017315054 -0.055398945 0.042409826 0.08720505
000390 ba b1 62 bd 4d 10 90 3d d5 d5 f7 bb 30 0b 87 3c
       -0.055345275 0.07034359 -0.0075633326 0.016484827
0003a0 90 27 85 3d 29 c7 12 3e 73 27 11 3e 8d c2 54 3e
       0.065016866 0.14333786 0.14175205 0.2077734
0003b0 fc c9 66 3d b5 05 15 3e 2d c9 b5 bd 92 fe 30 be
       0.05634497 0.14552958 -0.08876262 -0.17284611
0003c0 97 14 c1 3c 7b a0 ef 3d a6 a8 eb bd 0f bb d0 3c
       0.023569388 0.11700531 -0.115067765 0.025479821
0003d0 14 80 9a 3d b3 98 8d bd 43 98 05 bd 5d 07 83 3d
       0.0754396 -0.06913891 -0.03261591 0.06397889
0003e0 fe 1a 64 3d e1 45 04 bb 3b 02 ea 3c c8 0c 01 3e
       0.055689804 -0.0020183253 0.028565517 0.12602532
0003f0 a8 6f b7 bc 09 da bc bd 12 ce 56 3c 22 2e b2 bb
       -0.022392109 -0.092212744 0.013110654 -0.0054376284

network_body._body_endoder.seq_layers.2.bias f4 [128]
000000 c7 8f 10 bd 4e 45 86 bc 49 36 0d 3c 88 cf c0 3c
       -0.035293367 -0.016390469 0.0086189 0.023536459
000010 af d2 40 bd b0 f3 b5 bd e5 19 64 bd a4 e1 9b bd
       -0.047075924 -0.0888437 -0.055688757 -0.07611397
000020 6f d0 a4 3c ca fb 85 bd 11 50 24 3d e0 1e 88 bc
       0.02011892 -0.065421656 0.04011542 -0.016616285
000030 2f c9 13 bc 4e 7b 07 bd 9b b4 bb bc 83 74 68 bc
       -0.009020134 -0.033076577 -0.022913268 -0.014187935
000040 ff b8 8d bd af 9d 44 3c fd 9a c5 bb d9 f8 c9 bc
       -0.06920051 0.012000485 -0.006030439 -0.024654793
000050 fc e9 d2 bc 97 f7 e8 bc ad 60 4b bd fa 2c b0 3c
       -0.025746338 -0.028438373 -0.049652744 0.021505821
000060 d9 ef 96 bd 3e 75 31 bd 46 f4 fa bc d3 0d 92 bd
       -0.07369966 -0.0433247 -0.030634057 -0.07131543
000070 9c ed d3 bd 97 b3 a0 bd 10 47 af 3c 7b f5 2e bd
       -0.10348055 -0.07846754 0.02139619 -0.042714577
000080 12 ce dd bc 76 18 bf bd 15 be 95 bc 7f 3a 14 3d
       -0.027075801 -0.093308374 -0.018279115 0.0361886
000090 39 9b 0e bd 58 3b d3 bd b8 60 2c bd 73 45 58 3c
       -0.034816 -0.10314053 -0.042084426 0.013200152
0000a0 61 ee d3 bb 72 ac 16 bb 6b 9e b8 3c 35 82 90 bc
       -0.006467626 -0.002299097 0.022536477 -0.017640213
0000b0 cb b8 a3 bd 26 71 78 bd 3e 65 4c 3d 1b 70 19 bc
       -0.07994231 -0.06065478 0.04990124 -0.009365107
0000c0 df b5 6a bc fc 75 69 bd 1c 68 7b bd 68 5f b4 bc
       -0.014325588 -0.056997284 -0.061378583 -0.02201815
0000d0 ad 05 61 bc 16 44 87 3c b8 8a 75 bd b3 ad 3a bb
       -0.013734263 0.016511958 -0.059946746 -0.002848488
0000e0 1e 98 3d bc 44 f2 81 bd 20 6d 43 bd ec 17 94 bd
       -0.011571912 -0.063450366 -0.04771149 -0.07231125
0000f0 d6 3d 4a bd 4e 94 fb bb 8d cd 99 bd 2f f7 35 bc
       -0.049375378 -0.0076775914 -0.07509909 -0.011106296
000100 dd d6 2e 3d e9 b0 a4 3c 96 7e 02 3d 3a c3 ca bb
       0.04268538 0.020103889 0.031859003 -0.0061878236
000110 26 38 af bc 5c 74 98 bd 4f e3 a3 3c 5b b7 4b bd
       -0.021389078 -0.07444069 0.02000585 -0.04973541
000120 bd ad 10 bd b2 81 20 bd 2b e9 0c 3c a5 42 37 bd
       -0.03532194 -0.039186187 0.008600513 -0.04474129
000130 60 17 16 3c d2 27 9d bd 24 77 97 bd 05 95 f3 bb
       0.0091608465 -0.07673611 -0.07395771 -0.007433536
000140 ae 13 05 3c f1 08 1d bc a7 11 8b bc 9a f2 c4 bc
       0.008122368 -0.009584651 -0.01697619 -0.024041463
000150 fe da 1a bd 8c 1e 43 bc b8 4d 1d bd 6b 5b 1a bd
       -0.037806503 -0.011909138 -0.038404197 -0.03768484
000160 d3 43 4e bd 9c de 6c 3d 39 eb 4b bd 8b ed 80 bd
       -0.05035765 0.057829484 -0.049784873 -0.06295308
000170 0f e3 cf bc 9a 33 01 be 65 53 14 bd d7 24 08 be
       -0.025376825 -0.1261734 -0.036212344 -0.13295303
000180 f1 1b e5 3c 20 0f 03 bd 80 f5 67 3c a2 df 3b bd
       0.027967425 -0.031996846 0.014157653 -0.04586757
000190 5f 91 0e bc c9 59 49 bd bd 66 2a bc 69 14 ce bc
       -0.008701651 -0.04915789 -0.010400471 -0.025156217
0001a0 df 33 00 3a 13 8f 7e bd d8 12 85 3c 85 8d 22 3d
       0.0004890542 -0.062148165 0.016244337 0.039685745
0001b0 14 ed 30 3d 43 df 38 bd 38 33 8e bd 8b e1 17 3b
       0.043194845 -0.045134794 -0.06943363 0.0023175206
0001c0 dd b8 78 bd 85 59 15 bd fb 79 f8 3b f7 d2 41 bd
       -0.060723174 -0.036462326 0.0075829006 -0.047320332
0001d0 ab 56 4b bd 0f bf c7 bc b6 63 ef 3c 5e e2 c0 bb
       -0.0496432 -0.024383096 0.02922235 -0.00588636
0001e0 75 8d 1f bd f4 f0 8f bd 74 f2 58 3d 5d 71 e8 bc
       -0.038953263 -0.0702838 0.052965596 -0.028374368
0001f0 5b fe a2 3d 4c 52 00 bd f9 f0 b8 bd ac 5d e2 bc
       0.07958671 -0.031328484 -0.09030337 -0.027632557

network_body._body_endoder.seq_layers.4.weight f4 [128, 128]
000000 36 7a 19 be 50 68 e7 bc 12 af 29 bd b8 4c 80 3d
       -0.14988026 -0.028247982 -0.041426726 0.06264633
000010 f4 7a 0a 3c 63 4f 17 be c3 1f 2f be 17 c7 15 be
       0.008452166 -0.14776377 -0.1710196 -0.14626728
000020 ca 39 02 bd d9 d3 f6 bd 17 0e 1a be fa 07 06 3d
       -0.031793393 -0.120521255 -0.15044437 0.03272245
000030 fe ba 83 bd c7 e2 04 39 be 59 85 3c 01 ca dd bd
       -0.0643215 0.00012672982 0.016278144 -0.10829545
000040 e2 f5 56 bc ce 2d ba 3d a5 53 16 be 1f 22 f4 bc
       -0.0131201465 0.09090768 -0.14680345 -0.029801426
000050 40 8f e0 bd 84 6a 7e 3d d9 35 87 be 15 df 6c bc
       -0.10964823 0.0621133 -0.2640827 -0.014457484
000060 d9 4a bf bd d1 5f b2 3d 3b 88 de bd 3f 0c 97 bd
       -0.09340448 0.08709682 -0.10865828 -0.07375383
000070 92 a1 c4 bd bd 62 f5 bd d0 46 08 3d 51 87 46 3a
       -0.096011296 -0.119817235 0.033270657 0.00075732643
000080 fa 3f cb bd bf ca 45 be 5b 95 2c 3b af 39 8d 3d
       -0.09924312 -0.19315623 0.002633414 0.06895768
000090 8b 3d 03 be 19 e0 12 3e d7 6b 35 be b2 a1 04 be
       -0.12816446 0.14343299 -0.17716919 -0.12952307
0000a0 6a 92 01 be 11 c4 fb bc d3 21 53 bc 87 86 b2 3a
       -0.12653509 -0.03073314 -0.012886482 0.0013620415
0000b0 50 ad 9d 3d b5 58 81 bd 6f 9f e5 bc 71 9a b6 bd
       0.07699072 -0.06315748 -0.028030125 -0.08916176
0000c0 64 1d a7 bd 09 32 d0 3c cd 4c ca 3d 99 15 23 be
       -0.08159903 0.025414484 0.0987793 -0.15926208
0000d0 39 cd 90 3c 77 dc 62 bd 95 c0 f9 bd 00 f3 50 bd
       0.017675983 -0.055386033 -0.12194935 -0.051012993
0000e0 2e 63 00 3e a2 eb 2f be 58 d5 90 3d ef af 2f 3d
       0.12537834 -0.1717973 0.07071942 0.042892393
0000f0 fe fc cc 3d 4a 41 3f bd c3 88 e7 bd 46 c1 c2 3d
       0.10009192 -0.046693124 -0.11305382 0.0950952
000100 f9 e0 82 bc 7c cd ef 3d 6e 6f c3 bd ff c9 0f 3d
       -0.015976416 0.11709115 -0.09542738 0.035104748
000110 d8 9d 8a bd 6d ed 23 3c 95 6e 8b bd 90 85 95 3c
       -0.067683876 0.010005337 -0.06808201 0.018252164
000120 8b 81 c7 3d 09 26 bc bc 54 ff 8e bc 7b 78 b1 bd
       0.09741505 -0.022967355 -0.017455734 -0.08665558
000130 04 ec b5 bb cc 1e 1a be 73 64 07 3d bf a9 b9 3d
       -0.005551817 -0.1505081 0.03305478 0.090655796
000140 77 cc df 3d ae 78 ef bd cb 0a b3 bd b4 ec 91 3c
       0.109276704 -0.1169294 -0.08742293 0.017813064
000150 2d 23 27 3e d6 ad 62 bd bb d4 ef bc 17 39 8a bc
       0.16322012 -0.055341564 -0.029276242 -0.016872926
000160 39 eb eb bc f5 bf de bd 22 73 33 be 07 22 ba bd
       -0.028798686 -0.10876457 -0.17524388 -0.090885215
000170 4d fb a5 3d b7 4b 25 3d ce 88 64 3d 80 c1 68 3d
       0.081045724 0.04035541 0.05579453 0.05682516
000180 65 27 0d bd 09 1b 76 3c 51 2a 2b be c9 aa 93 bd
       -0.034461398 0.015021094 -0.16715361 -0.07210309
000190 58 69 e7 3c b6 de ff 3c 29 fd d2 bc f6 71 a5 bd
       0.028248474 0.031234127 -0.025755482 -0.08078377
0001a0 c1 e3 07 be e0 c9 3d 3e 8b 8c f8 3b 17 bd 4c bd
       -0.13270475 0.1853404 0.0075851134 -0.049985018
0001b0 d1 01 7a bd 64 9e b5 3d 72 8c 85 bd cf 28 eb 3a
       -0.06103689 0.08868101 -0.065209284 0.0017941239
0001c0 97 15 bd bb ce 92 8a bd d6 45 45 bc 81 b3 80 3c
       -0.005770396 -0.06766282 -0.012040576 0.015710594
0001d0 17 6a ea bd 8b 21 09 be 10 6c 9d bc e5 f3 0b 3d
       -0.11446016 -0.13391702 -0.019216567 0.034168143
0001e0 99 b0 19 3c 9d 81 da bd 69 fa 4c 3d 60 d2 78 bd
       0.009380483 -0.10669253 0.050043497 -0.060747504
0001f0 4c 2f 48 bd 76 da a2 bc 26 d7 da bb 58 6a 98 3d
       -0.04887323 -0.01987956 -0.0066784797 0.074421585
000200 83 80 9b bd 59 0f 56 bd 89 f1 dc 3b 2e 82 1c 3d
       -0.07592871 -0.05226073 0.0067426604 0.038210087
000210 b3 34 ff bc 5b 85 87 bb 36 03 33 bd 14 d4 56 bb
       -0.031153059 -0.0041357703 -0.043704234 -0.0032780217
000220 91 a8 88 3d 05 99 68 bd f1 18 eb 3d 91 ab 39 3d
       0.066727765 -0.056786556 0.114793666 0.045329634
000230 ec bc 3c 3d ed c8 b2 3c 95 49 09 3e 7b b6 68 be
       0.046078607 0.021824325 0.13406976 -0.22725861
000240 29 db dd bd 1d 0b 5e bd 65 1b 1a 3e 9b 08 8f 3d
       -0.10832817 -0.054209817 0.15049513 0.06984063
000250 f4 02 7d 3d 9e 3c c3 3d 30 28 92 bc 1f 66 84 3b
       0.061770394 0.09533046 -0.017841429 0.004040494
000260 21 ef 81 bd f2 ad 0b bc ef 6e b4 3d 8e 19 36 3d
       -0.06344438 -0.0085253585 0.088102214 0.044457965
000270 4c 5d 46 be eb df 03 bd 73 92 53 be 88 53 be 3d
       -0.19371527 -0.032195967 -0.20661335 0.09293276
000280 92 df 2d bd a5 4a 47 be 20 95 10 be e5 55 2e be
       -0.04244954 -0.19462068 -0.14119387 -0.17024954
000290 ce 04 4d bd 7c 51 3a be 95 e2 b3 3d 78 45 81 be
       -0.05005341 -0.18195146 0.087834515 -0.25248313
0002a0 05 46 38 3e 66 bd e0 3d 07 8f fa 3d 47 42 a2 ba
       0.1799546 0.10973625 0.122343116 -0.0012379371
0002b0 98 1b 4a 3d b4 5f 19 bc c6 3d 41 3b d6 43 a4 3d
       0.04934272 -0.009361196 0.0029486283 0.08020751
0002c0 07 df b4 3c dd a4 53 be 59 c3 2c 3d 33 47 1d bd
       0.022079004 -0.20668359 0.042178486 -0.03839798
0002d0 0f fc 84 3d 33 8e 39 be 3f 74 3e be eb 6f 78 3d
       0.06493389 -0.18120651 -0.18599032 0.06065361
0002e0 73 93 96 bd 24 1a 06 3d 90 ba 14 3d 9b 75 d7 bd
       -0.073523425 0.032739773 0.036310732 -0.10520478
0002f0 3c 9b 0b 3d a0 c0 6c bd e8 ef 84 bd 86 6d a3 bd
       0.03408359 -0.05780089 -0.06491071 -0.07979874
000300 a0 5f 87 bc 3c 1c 52 bc 22 a8 b1 bc 33 9c 71 bd
       -0.01652509 -0.012824114 -0.021686617 -0.058986854
000310 9e d8 88 bd 12 8f 99 bc b3 d6 c1 3c 71 8d 08 3d
       -0.066819414 -0.018744979 0.023661947 0.033338014
000320 e6 9d 87 bc 4f 2b 5a 3d f0 d7 fc bd ca 19 8a 3d
       -0.016554784 0.05326396 -0.12345874 0.067432
000330 ad 9f 79 bd 71 fd e3 3d 50 43 1a 3c 25 dc 97 3d
       -0.060943294 0.111323245 0.009415463 0.07415036
000340 86 78 15 be 65 8d 45 3d 23 41 49 3d 46 56 9f 3c
       -0.14596757 0.048230547 0.049134385 0.019450318
000350 c1 82 7b 3d 1e 2d f3 3d a9 43 35 be 9c 3c 63 be
       0.061403994 0.1187384 -0.17701592 -0.2219109
000360 8d 96 15 bd 40 86 58 bd 15 1c e8 bd d7 1e 3a be
       -0.03652053 -0.052862406 -0.11333481 -0.18175827
000370 0c f2 a7 bd 74 23 eb 3d 17 3f 7b bd 44 af 43 3d
       -0.08200464 0.114813715 -0.061339464 0.04777457
000380 07 aa f9 3d e0 e9 3d 3d fa 85 29 be 62 af b1 bd
       0.12190633 0.04636562 -0.16555014 -0.0867603
000390 89 11 8e 3d 34 12 ac 3d 12 6f 2a 3d c2 97 28 bd
       0.06936938 0.084019095 0.04160983 -0.041160353
0003a0 6b 32 17 be 9d 3e 06 bb 56 18 a4 bd cf a4 2f 3c
       -0.14765327 -0.0020484098 -0.08012454 0.010720446
0003b0 76 d1 80 be a2 eb ff bc ad 61 51 bd c2 d6 be 3d
       -0.25159806 -0.031240288 -0.05111854 0.093183056
0003c0 56 36 ab bd 3f 75 11 bd 4f 2e db bd bf a6 4e bc
       -0.08359973 -0.035512205 -0.10702192 -0.012612998
0003d0 76 ee fe 3d 13 a1 12 bc c3 63 ef bb 71 20 43 bd
       0.124478266 -0.008949536 -0.0073055937 -0.04763836
0003e0 3c a8 43 bd 9e 9c 95 3d 0e c8 8d 3d 21 4d 1a 3e
       -0.047767863 0.07305263 0.06922923 0.15068485
0003f0 5e 35 73 3d 76 39 dc bd 89 cc d8 bc 4c ba 27 be
       0.059377067 -0.10753147 -0.026464717 -0.1637966

network_body._body_endoder.seq_layers.4.bias f4 [128]
000000 d3 26 d4 3c 56 9b 56 bc 3a 79 80 bd b8 a5 a0 bc
       0.02589742 -0.013098558 -0.06273122 -0.01961027
000010 48 d7 6b 3c 04 e6 7b bd 33 8f f4 bd 76 25 ef bd
       0.014394589 -0.061498657 -0.119413756 -0.11677067
000020 b3 5c b2 bd be 41 2a 3d d6 ea ae bd e6 65 ea bc
       -0.08709087 0.041566603 -0.08540885 -0.028613042
000030 e5 80 ac 3c a7 cb 9f bb c5 1a 73 3b ac b3 6d bc
       0.021057555 -0.004876572 0.0037094813 -0.014508169
000040 e0 60 27 ba 84 e4 02 bc 10 15 a9 3c 2b d1 90 bd
       -0.000638498 -0.007989053 0.020639926 -0.070711456
000050 c6 ed 25 bd 0a 4e 42 3d 28 06 a6 bd f9 65 69 3d
       -0.04050996 0.047437705 -0.08106643 0.056982014
000060 f5 5b 2e bd 12 a7 0a be 2f cc 06 bd 40 df a7 bd
       -0.042568166 -0.13540295 -0.03290957 -0.081968784
000070 bf f3 06 3d ec f8 64 3b e3 07 d9 3c ec 0c 85 bc
       0.0329473 0.0034938408 0.026493018 -0.016241513
000080 20 20 58 bd b1 46 63 bd f1 d3 56 bd e0 e5 97 bd
       -0.05276501 -0.05548734 -0.052448217 -0.07416892
000090 48 1a 87 3c 73 fc 22 ba ab 81 78 bd 70 c4 5f bc
       0.016492024 -0.00062174274 -0.060670536 -0.013657674
0000a0 6f 1d 02 3d 18 ff ac 3b c1 e6 4d 3c ee 88 91 bd
       0.03176635 0.005279433 0.012567223 -0.071061954
0000b0 3e 04 c7 bd de e1 80 3b e3 76 f3 bc 28 0a a5 39
       -0.09717606 0.0039331755 -0.029719776 0.0003147882
0000c0 a9 97 17 bd 85 04 0f bd 1a 66 42 3d 7f ac 8e 3c
       -0.03700987 -0.03491642 0.047460653 0.017416237
0000d0 01 17 83 bd 3a f0 b1 bd 25 d3 76 bd 55 11 2a bd
       -0.06400872 -0.08688398 -0.060259957 -0.041520435
0000e0 6a 0b c6 bd 09 e5 67 3b b1 65 c6 bd 55 95 ac bd
       -0.09670146 0.0035384318 -0.09687365 -0.0842692
0000f0 2c 39 34 bd ea 3a 9c bd 49 9c ae bd 46 93 5a bc
       -0.043999836 -0.076284245 -0.08525903 -0.013340777
000100 35 4a e0 bd 7b b5 c0 bd e1 c2 d1 3b d2 21 bf bd
       -0.10951654 -0.09409615 0.006401405 -0.093326226
000110 04 42 c3 bd 4d 64 0a 3d 08 87 aa 3b bb 9b a7 3d
       -0.09534076 0.03378706 0.0052040853 0.08184
000120 37 c1 30 3d ea b7 4d 3c 2f f8 27 bc 3a cb a3 bd
       0.043153014 0.012556056 -0.010252043 -0.07997747
000130 4d f8 99 bd 06 c6 4e 3c ec ec ba bd 3e f2 cc bd
       -0.07518063 0.012620455 -0.091272205 -0.100071415
000140 9a 7b 4e bd 16 9a 1c 3c 5e 90 bc bd 15 57 be bc
       -0.050410844 0.009558221 -0.09207223 -0.023234883
000150 e7 81 65 bc 29 57 41 bd 83 7b 87 bd fb bc 1a 3c
       -0.014008022 -0.047202263 -0.06615355 0.0094444705
000160 a4 ec cd 3c 43 90 94 bd dd 1b fc bc f6 e8 7e bd
       0.025137253 -0.07254078 -0.030775005 -0.062233888
000170 9d 9e 3e bd c1 a7 c9 3d 1f 99 8c 3b d0 4a 15 3d
       -0.046537984 0.0984645 0.0042907144 0.0364483
000180 00 e9 bd 3c 80 f0 30 3d 94 1f 84 3c 52 f0 54 bc
       0.023182392 0.04319811 0.016128339 -0.01299675
000190 fe e9 4c 3b 57 81 72 bc c2 19 59 3d bf 7c f3 3c
       0.00312674 -0.014801345 0.05300308 0.02972257
0001a0 ac f1 4b 3b c5 4d da bc 21 fa 63 3d a9 01 5f bd
       0.003111939 -0.026648412 0.055658463 -0.054444943
0001b0 20 64 8a bd 0a f1 66 3c 84 69 66 bd db a6 83 3c
       -0.067573786 0.014095554 -0.05625297 0.016070774
0001c0 a6 38 63 3c a8 cc 9a bd 46 c7 b9 bb aa 6c 53 3d
       0.0138684865 -0.07558566 -0.005669507 0.051617302
0001d0 9a 87 25 bc b7 00 4d bd 84 2b 10 3d c1 70 20 3d
       -0.010103131 -0.05004951 0.03519775 0.03917003
0001e0 9a e1 bc 3d b4 d9 d7 3c 3c 27 74 bb 05 0b f5 bc
       0.092227176 0.026348926 -0.003725483 -0.029912481
0001f0 4c ae e1 3c 21 73 6e 3d d8 41 bb bd 21 d4 20 3d
       0.027548932 0.058215264 -0.09143418 0.039264802

action_model._continuous_distribution.log_sigma f4 [1, 2]
000000 29 b0 e0 bf be 14 28 3f
       -1.755376 0.6565665

action_model._continuous_distribution.mu.weight f4 [2, 128]
000000 17 10 b2 3c e7 c9 e7 bc db 13 2d bb 4c dc f4 bb
       0.021736188 -0.028294517 -0.002640954 -0.0074725505
000010 81 20 0f bb 43 ca 55 bc b3 d8 e6 bc d8 47 83 bc
       -0.0021839442 -0.013048711 -0.028179502 -0.016025469
000020 90 43 0d bc be 31 bd 3b cd b9 4f bc cf 6b 67 3b
       -0.008622065 0.005773752 -0.012678576 0.0035312062
000030 ec cd 0f bc 7b 7e a6 bd 57 e1 ff 3a 15 b7 80 bb
       -0.008777123 -0.08129593 0.0019522113 -0.003928075
000040 c5 92 e1 bb aa b6 a9 3c 4d 2f 96 3a 34 22 ab bd
       -0.0068839514 0.020716984 0.0011458189 -0.08356133
000050 ae 01 77 bc 12 60 eb 3b c0 54 0a bb 45 c5 15 3d
       -0.015076084 0.0071830833 -0.0021107644 0.036565084
000060 ca 65 c1 bb 4c da 78 bb e5 c0 d4 bc 30 0b 5f bc
       -0.005902027 -0.0037971912 -0.025970886 -0.013613507
000070 c3 ec 5d 3c 89 2d 90 bb cb 0d 08 3d de 84 29 bd
       0.013545218 -0.0043999595 0.03321628 -0.041386478
000080 0f 38 25 3b 4d f2 3b bd bd e9 44 bd a2 6c e5 bc
       0.0025210415 -0.045885373 -0.048074473 -0.028005902
000090 75 ff 17 3b 5d a4 6a bc 0f 39 46 bd c1 86 ee bb
       0.0023193036 -0.014321414 -0.04839426 -0.0072792475
0000a0 28 cb 9d bb 7b 2c c2 bb a8 f6 cd 3c 22 9c 3b bb
       -0.004815478 -0.0059257126 0.025142029 -0.0028626998
0000b0 53 7f 00 bc 70 b3 4c bc 46 6f b0 bc 47 51 1f 3a
       -0.007842856 -0.012493953 -0.021537434 0.000607748
0000c0 9e ed c4 ba f9 d4 ef bb a4 f5 f7 bb 90 15 37 3c
       -0.0015024429 -0.0073190895 -0.0075671244 0.0111745745
0000d0 66 3c 76 bd 78 84 9b bc eb 36 0e bc 6c 9e 48 bc
       -0.060116194 -0.018984064 -0.008680086 -0.012244802
0000e0 41 9a 51 bc 83 92 9c 3b 3e 6e 94 bc d1 f7 21 ba
       -0.012793125 0.0047782077 -0.018118974 -0.000617859
0000f0 e0 ef e8 ba a2 e7 e6 3b 6e cd 02 bc 67 7d 59 bd
       -0.0017771684 0.0070466558 -0.007983549 -0.05309811
000100 e1 1d d1 39 f4 ae 9b bc 28 f0 dc bc 2c 06 19 bb
       0.00039885848 -0.019004323 -0.026969984 -0.0023349626
000110 db fb ef bb 4c a5 e0 3c af 0b a3 bc 33 8f 60 3d
       -0.0073237247 0.02742257 -0.019903032 0.054824065
000120 ee 2a 97 bc 20 d6 1b 3d 54 e1 0e bd 6a aa da bc
       -0.018453088 0.038046002 -0.03488286 -0.026692588
000130 b5 17 80 bb 55 5c da b9 17 f6 5e bc 74 cc 03 3b
       -0.003909076 -0.00041648993 -0.013608477 0.0020110877
000140 e3 17 37 bd dc d1 f1 3c e8 4e 43 bd b0 44 18 bb
       -0.044700515 0.029519014 -0.047682673 -0.00232343
000150 72 70 7d bb 7c be 87 3b cf 2a 9f ba 7c 2f 26 3b
       -0.003867176 0.0041425806 -0.0012143495 0.0025357893
000160 4f 85 04 3b d0 37 08 bd 5e c1 20 3c 4a a6 1c bb
       0.002022106 -0.033256352 0.009811727 -0.0023902827
000170 17 b3 59 bb cd 37 51 3d 7d ed 96 bc f8 f9 c2 bc
       -0.0033218318 0.051078606 -0.01842379 -0.023800835
000180 05 33 09 3d 9f 4e 16 bc 9b be 58 bc e3 5b 0e bc
       0.03349592 -0.009174018 -0.013229038 -0.0086889
000190 32 4d fb b9 dd 26 3c 3b f0 60 b9 3c bf 08 04 3d
       -0.00047931966 0.0028709688 0.022629231 0.032234903
0001a0 25 eb b1 3c 12 05 75 3c 1b 25 7e 3d a5 96 48 3a
       0.021718571 0.014954822 0.062047105 0.00076518423
0001b0 3f 6c 13 bc ff bc 89 3a 60 9d 83 3b 18 1c b8 bc
       -0.008997976 0.0010508596 0.0040165633 -0.022474334
0001c0 42 7d b8 bb 98 5e 0f 3a 4c a7 68 bc 37 ce 2e bc
       -0.0056301663 0.00054691127 -0.014200043 -0.010669283
0001d0 e0 4c 0f bc a3 3d 5b bc 95 9d fc 3c 8e 08 35 3c
       -0.008746356 -0.013381395 0.03083686 0.011049403
0001e0 06 d4 81 3c 09 3f fc bb 96 05 98 3c 68 e3 6d bd
       0.015848171 -0.007697944 0.018557351 -0.0580782
0001f0 83 2c 48 3d 4c ba 9e 3b 44 fe a6 b9 b2 73 9a 3b
       0.048870575 0.0048439857 -0.0003185143 0.004713499
000200 79 40 ab bc 86 6a 17 bc 21 a9 b7 3c 25 e6 ec 3b
       -0.020904766 -0.009241706 0.022419514 0.007229584
000210 fe ad 10 bd 0b 84 96 bd 50 46 8f bd 1d b6 7b bd
       -0.035322182 -0.07349404 -0.06995833 -0.061452974
000220 11 d4 84 bc 86 09 0f 3c 31 60 a3 bc 50 8a d9 bc
       -0.016214402 0.008730298 -0.019943329 -0.02655521
000230 61 bb 26 3d b4 ff 7c bc ed 86 38 3d bd 26 4f bd
       0.040706042 -0.015441824 0.04505055 -0.050574053
000240 89 e2 43 bc 93 b2 38 bd e4 11 66 3d e1 04 f2 ba
       -0.011955866 -0.045092177 0.056169406 -0.0018464589
000250 b9 96 4f bc e5 3f 0f bd 8f 32 16 bc 56 36 ea 3c
       -0.012670212 -0.034973044 -0.009167328 0.028590363
000260 3c 91 26 3d 73 c7 28 bd bf 8b 67 bc f8 7e f6 bc
       0.04066585 -0.041205835 -0.014132439 -0.03008984
000270 01 74 43 bd 32 fe 9a bc 78 0a 85 3d 10 1d 11 bd
       -0.04771805 -0.018920038 0.064961374 -0.035428107
000280 e6 80 58 bd 17 df a3 bc 8b 4a 39 bd bb a9 14 bd
       -0.052857302 -0.020003838 -0.045237105 -0.03629468
000290 6c a9 17 3a 5d b0 29 3d 9b fd ea bc 5e 82 09 3c
       0.00057854387 0.04142796 -0.028685382 0.008392898
0002a0 b5 09 47 3d d1 54 18 bd 0a d7 0d 3b 5a bb 2b bc
       0.04859324 -0.037190262 0.0021643066 -0.01048168
0002b0 7a c5 8f bc 22 09 a9 3c 90 2d 47 bd c1 53 14 bc
       -0.017550219 0.020634238 -0.048627436 -0.009053172
0002c0 d3 da c1 bb 76 0e 0e bd e1 7e be 3d 37 22 ee bc
       -0.0059159785 -0.03468176 0.09301544 -0.02906905
0002d0 5f e0 01 bd f4 ac 24 bd 5d 79 3f 3b ba 98 64 bd
       -0.031708118 -0.040204003 0.0029216625 -0.055809714
0002e0 d7 28 b1 bd 77 67 72 bc 97 72 03 bc ee 24 15 bd
       -0.08650368 -0.014795176 -0.008022926 -0.036412172
0002f0 4b 6a a3 bd 27 07 83 bd 7a d1 9b bc 97 fb 5a bd
       -0.07979258 -0.063978486 -0.019020785 -0.05346259
000300 9a 37 7a bd 27 6e 39 bd f0 64 6b 3d c2 b4 ad bc
       -0.061088182 -0.045271065 0.05746931 -0.021204356
000310 63 f8 99 bd 0a df 73 b7 7d f4 c7 3c 63 78 7b bc
       -0.07518079 -1.4535859e-05 0.024408573 -0.015348527
000320 0b ce 78 3d f1 b8 4b bc 0f 51 89 3c d8 61 21 bd
       0.060743373 -0.01243423 0.016762285 -0.03939995
000330 2e d0 7a bd 31 a4 3d 3c 0c e2 6b bc d1 3a 45 bd
       -0.061233692 0.011574791 -0.0143971555 -0.048151795
000340 6b 6d f2 bc 31 50 fe bb 0a 2f 75 bc f0 9e 8e bc
       -0.02959319 -0.0077610244 -0.014964828 -0.017409772
000350 ff f8 00 bc b2 35 bb bd 5c 75 f7 bc 08 8b 68 3d
       -0.007871865 -0.09141101 -0.030207328 0.056773216
000360 c1 18 fb bc 47 5c 33 bd 45 bd b8 3c b1 9b 65 bd
       -0.030651452 -0.043789174 0.022551188 -0.056056682
000370 c4 73 40 bc fb 4a 92 3c fb 2d ed bc cb 78 0c 3b
       -0.011746351 0.01785802 -0.02895259 0.0021434303
000380 ba 12 a0 bc 76 65 1a 3c bd a6 f0 3c 6c c1 c4 bb
       -0.01954018 0.009423604 0.029376382 -0.006004503
000390 a0 00 57 3c ba 57 ca ba 44 34 88 3c 01 f7 89 3c
       0.013122708 -0.0015437522 0.016626485 0.016841413
0003a0 2c 93 0b ba 37 d5 a1 bc e2 a9 37 bc 43 71 85 bd
       -0.00053243595 -0.01975499 -0.011209937 -0.065157436
0003b0 ee 64 9d bc 8a a6 44 bd f3 e9 4a 3d 72 60 21 3c
       -0.019213166 -0.048010387 0.049539518 0.0098496545
0003c0 59 a4 d2 3c 36 c9 a1 bc ad df 46 3c 27 90 06 3d
       0.025713133 -0.019749265 0.012138289 0.03285232
0003d0 8c 68 b1 bc a7 64 a5 bd 2c 28 63 bc 76 11 b4 3c
       -0.021656297 -0.080758385 -0.013864558 0.021980982
0003e0 95 1e 80 3d c3 bc 3f bd ca 76 a2 bb 6e 8a ce bd
       0.06255833 -0.046810877 -0.0049580084 -0.10084997
0003f0 05 a4 d5 bc b3 27 47 3d a6 6e 4d bd 75 4e 33 3d
       -0.026079187 0.048621845 -0.05015435 0.043775994

action_model._continuous_distribution.mu.bias f4 [2]
000000 a7 99 3b 3d 37 55 b9 3d
       0.04580083 0.090494566
