TrainedNetwork/truck2.onnx (onnx, 460041 bytes, 13 tensors)

network_body.observation_encoder.processors.0.normalizer.running_mean f4 [110]
00000000: 0df0 cfc1 2aec 8ac1 4253 ac41 a96d be3b
00000010: 7e15 f43e 000b 30bc 2232 54bf 127d 1ac2
00000020: 5421 86c1 0f86 1542 225e 01c0 6bf2 0fbe
00000030: efc9 793f 1c1d 9b3b 8b16 0a3f 12f5 39bc
00000040: ff54 4dbf 0771 11c0 13e2 11be 3d5a 1d3f
00000050: ef12 1641 878d 6a42 cc8b d1c1 e67b 8bc1
00000060: 81a1 ad41 5f7a c43b 9c53 f43e cf51 3abc
00000070: f494 55bf 1d17 1bc2 5eaf 86c1 761a 1642
00000080: 84ae 01c0 c28c 0fbe 1004 813f f671 9e3b
00000090: 745c 0a3f a48b 44bc f3a0 4ebf 2bdc 12c0
000000a0: cbf6 11be 7e06 243f 1f45 1741 c3cc 6a42
000000b0: 4d30 d3c1 ca16 8cc1 be06 af41 5d5c ca3b
000000c0: ff86 f43e 1290 45bc d8d5 56bf d724 1cc2
000000d0: 2dc9 87c1 4e32 1742 a6ee 01c0 332d 0fbe
000000e0: ca1c 853f 9c8f a13b 469a 0a3f df10 50bc
000000f0: 83d4 4fbf 3138 14c0 7032 12be 1be7 2a3f
00000100: 4865 1841 f303 6b42 71ca d4c1 f129 8dc1
00000110: 2765 b041 2609 d03b b4af f43e 06f0 51bc
00000120: c11a 58bf 006e 1dc2 29d0 88c1 ad6a 1842
00000130: ed21 02c0 70da 0ebe 292c 893f 526f a43b
00000140: 62d1 0a3f 19ae 5cbc 661e 51bf bc84 15c0
00000150: d2a8 12be aaf4 313f 5e71 1941 8535 6b42
00000160: 5270 d6c1 8537 8ec1 d4d3 b141 2674 d53b
00000170: c3cf f43e a7a3 5fbc 7678 59bf 09cc 1dc2
00000180: 011e 89c1 cec1 1842 084a 02c0 b49d 0ebe
00000190: 7d2f 8d3f fc06 a73b 5702 0b3f 7497 6abc
000001a0: 386f 52bf 1bc5 16c0 b272 13be 7e27 393f
000001b0: fa66 1a41 6562 6b42
-25.992212 -17.365314 21.540653 0.0058114124 0.47672647 -0.01074481 -0.82888997 -38.62214
-16.766273 37.380917 -2.0213704 -0.14057319 0.9757375 0.0047336947 0.5394065 -0.011349933
-0.8020782 -2.2725236 -0.14246397 0.6146582 9.379622 58.63821 -26.19326 -17.435497
21.70386 0.005996033 0.4772004 -0.011372044 -0.8343041 -38.77257 -16.835629 37.52584
-2.0262766 -0.14018539 1.0079365 0.0048353625 0.5404732 -0.011996184 -0.8071434 -2.294688
-0.142543 0.64072406 9.454375 58.699963 -26.398584 -17.511127 21.878292 0.0061755613
0.47759244 -0.012058275 -0.8392005 -39.035976 -16.97323 37.799126 -2.030191 -0.13982086
1.0399411 0.0049304496 0.5414165 -0.012699335 -0.8118364 -2.3159297 -0.14277053 0.6675889
9.524727 58.753857 -26.598848 -17.64548 22.04939 0.006348747 0.477903 -0.012813574
-0.84415823 -39.35742 -17.10164 38.104176 -2.0333207 -0.13950515 1.0716602 0.005018153
0.5422574 -0.0134692425 -0.8168701 -2.3362265 -0.14322212 0.6951395 9.590178 58.802265
-26.804844 -17.77711 22.228432 0.00651409 0.4781476 -0.013649858 -0.84949434 -39.449253
-17.13965 38.189262 -2.0357685 -0.13927346 1.1030117 0.005097268 0.54300445 -0.014318336
-0.82200956 -2.3557804 -0.14399222 0.72325885 9.650141 58.84609

network_body.observation_encoder.processors.1.normalizer.running_mean f4 [504]
00000000: e160 bc3e 0000 0000 93c3 ad3d d598 c53e
00000010: 704f 463e 0000 0000 884d 803b ce25 ad3e
00000020: 0191 e03e 0000 0000 312c 6f3d a179 c23e
00000030: 9fd4 7e3e 0000 0000 3ca0 f839 9ade 8d3e
00000040: 2a21 e43e 0000 0000 6d49 643b 0fb7 b43e
00000050: 0daf d83e 0000 0000 2c5d e13a 0903 a83e
00000060: 895f 143f 0000 0000 d6bc df3c 9796 cb3e
00000070: 4aab 273f 0000 0000 e703 083c 9725 b63e
00000080: 1ce4 1c3f 0000 0000 f24b c13d 648d f03e
00000090: 597d f83e 0000 0000 50dc 283c e5d1 a73e
000000a0: c041 1c3f 0000 0000 547f de3d 638e 033f
000000b0: 76ab c93e 0000 0000 e1dc 843c ea1a ab3e
000000c0: 9924 163f 0000 0000 f37a de3d 7c56 183f
000000d0: 1b3e d03e 0000 0000 4106 1b3d e57b b03e
000000e0: 73fe 0c3f 0000 0000 f3ec f63d 5843 243f
000000f0: 67cf e43e 0000 0000 fcc6 073e f914 e13e
00000100: 381b 193f 0000 0000 2ede 393e 0dfc 3c3f
00000110: e70f ef3e 0000 0000 defc d43e 2afb 323f
00000120: 1543 ed3e 0000 0000 a439 d43e 41fa 433f
00000130: df66 ee3e 0000 0000 60b6 e83e 9a14 443f
00000140: e066 ee3e 0000 0000 60b6 e83e 9a14 443f
00000150: a0d4 be3e 0000 0000 bec3 ad3d dc0b c63e
00000160: ca3b 4b3e 0000 0000 d84e 803b df99 ad3e
00000170: e20b e13e 0000 0000 b22c 6f3d 5ad9 c23e
00000180: 85db 803e 0000 0000 9ea9 f839 875a 8e3e
00000190: 3105 e63e 0000 0000 a72b 893b 9d88 b53e
000001a0: 25f9 d83e 0000 0000 2162 e13a e065 a83e
000001b0: 12a3 143f 0000 0000 470c fd3c 6d8d cd3e
000001c0: 68c1 273f 0000 0000 351f 083c c67b b63e
000001d0: 6017 1d3f 0000 0000 bc15 c93d 279e f23e
000001e0: 1f96 f83e 0000 0000 1e09 293c 9b1b a83e
000001f0: 4364 1c3f 0000 0000 006f e63d 5699 043f
00000200: 91b6 c93e 0000 0000 2ef0 843c 9d5b ab3e
00000210: ea37 163f 0000 0000 289c e63d 4e6b 193f
00000220: d246 d03e 0000 0000 fd10 1b3d 78c0 b03e
00000230: 210d 0d3f 0000 0000 c940 ff3d db5d 253f
00000240: a6d8 e43e 0000 0000 05e9 073e ce7a e13e
00000250: 412f 193f 0000 0000 f320 3e3e c31a 3e3f
00000260: 9719 ef3e 0000 0000 fd7b d63e f225 343f
00000270: cd74 ed3e 0000 0000 7786 d63e 493b 453f
00000280: 8e75 ee3e 0000 0000 3c29 eb3e 2760 453f
00000290: 8f75 ee3e 0000 0000 3c29 eb3e 2760 453f
000002a0: d649 c13e 0000 0000 dfc3 ad3d e673 c63e
000002b0: 622d 503e 0000 0000 2050 803b b505 ae3e
000002c0: 5ad6 e13e 0000 0000 062d 6f3d 323a c33e
000002d0: f87e 823e 0000 0000 36b3 f839 d3cf 8e3e
000002e0: e87a e73e 0000 0000 648c bd3b 9fb2 b63e
000002f0: aa4a d93e 0000 0000 5967 e13a 82c7 a83e
00000300: 61da 143f 0000 0000 f8a6 0d3d a490 cf3e
00000310: b2d2 273f 0000 0000 7c3a 083c 4ed2 b63e
00000320: ba49 1d3f 0000 0000 bfe7 d03d 58b1 f43e
00000330: 54ae f83e 0000 0000 8638 293c 7b68 a83e
00000340: e890 1c3f 0000 0000 b964 ee3d afaa 053f
00000350: 53c1 c93e 0000 0000 2f04 853c 789d ab3e
00000360: 164d 163f 0000 0000 b6aa ee3d 8982 1a3f
00000370: 8d4f d03e 0000 0000 ae1b 1b3d a406 b13e
00000380: 801c 0d3f 0000 0000 e0bc 033e c17e 263f
00000390: 72e1 e43e 0000 0000 0105 083e 52e2 e13e
000003a0: 2142 193f 0000 0000 0b5a 423e 1350 3f3f
000003b0: d722 ef3e 0000 0000 ef85 d73e 7444 353f
000003c0: 78a5 ed3e 0000 0000 5acf d83e 9e6d 463f
000003d0: c684 ee3e 0000 0000 b29b ed3e 60b1 463f
000003e0: c784 ee3e 0000 0000 b29b ed3e 5fb1 463f
000003f0: c7be c33e 0000 0000 06c4 ad3d 7cd3 c63e
0.36792663 0.0 0.084845684 0.38593164 0.1936624 0.0 0.0039154924 0.33817905
0.4386063 0.0 0.058391754 0.3798342 0.24885796 0.0 0.0004742163 0.27708894
0.44556552 0.0 0.0034833804 0.35295913 0.42321053 0.0 0.0017193905 0.32814816
0.57958275 0.0 0.027311724 0.39763328 0.6549574 0.0 0.008301712 0.35575554
0.6128557 0.0 0.094383135 0.46982872 0.48533133 0.0 0.010306433 0.32777324
0.61037827 0.0 0.1086413 0.5138914 0.39388627 0.0 0.016218605 0.3341897
0.58649594 0.0 0.108632945 0.59506965 0.40672383 0.0 0.03784776 0.34469524
0.5507576 0.0 0.12056913 0.6416526 0.44689485 0.0 0.132595 0.43961313
0.5980716 0.0 0.18151161 0.738221 0.4669182 0.0 0.41599172 0.69914496
0.46340242 0.0 0.41450226 0.7655373 0.4656286 0.0 0.4545164 0.76593935
0.46562862 0.0 0.4545164 0.76593935 0.37271595 0.0 0.084846005 0.38680923
0.19847026 0.0 0.003915649 0.33906457 0.43954378 0.0 0.058392234 0.3805645
0.2516748 0.0 0.0004742862 0.27803442 0.44925836 0.0 0.004186112 0.3545579
0.42377582 0.0 0.0017195382 0.32890224 0.58061326 0.0 0.030889643 0.40146962
0.6552949 0.0 0.008308222 0.35641307 0.6136379 0.0 0.09818599 0.47386286
0.48552033 0.0 0.010317115 0.3283356 0.6109049 0.0 0.1125164 0.5179647
0.393971 0.0 0.016227808 0.33468333 0.5867907 0.0 0.11260253 0.5992936
0.40679032 0.0 0.037858 0.34521842 0.5509816 0.0 0.12463529 0.6459634
0.4469654 0.0 0.13272484 0.44039005 0.5983773 0.0 0.18567257 0.74259585
0.4669921 0.0 0.4189147 0.703704 0.46378174 0.0 0.41899464 0.77043587
0.46574062 0.0 0.45929897 0.7709984 0.46574065 0.0 0.45929897 0.7709984
0.37751645 0.0 0.08484625 0.38760298 0.20329812 0.0 0.0039158016 0.3398873
0.4410885 0.0 0.058392547 0.38130337 0.25487494 0.0 0.0004743577 0.27892932
0.45210958 0.0 0.005784558 0.35683152 0.42439777 0.0 0.0017196938 0.32964712
0.5814572 0.0 0.034583062 0.4054004 0.6555587 0.0 0.008314725 0.35707325
0.6144062 0.0 0.10200452 0.47791553 0.48570502 0.0 0.010328418 0.32892212
0.6115861 0.0 0.11640305 0.5221357 0.39405307 0.0 0.016237346 0.33518577
0.58711374 0.0 0.11653654 0.6035543 0.40685692 0.0 0.037868194 0.3457538
0.5512161 0.0 0.12865019 0.6503716 0.4470325 0.0 0.13283159 0.4411798
0.5986653 0.0 0.18979661 0.7473156 0.46706268 0.0 0.4209437 0.70807576
0.46415305 0.0 0.42345697 0.7751101 0.46585673 0.0 0.4640785 0.776144
0.46585676 0.0 0.4640785 0.77614397 0.3823149 0.0 0.08484654 0.38833225

network_body._body_endoder.seq_layers.0.weight f4 [128, 614]
00000000: 7f96 503d 4de4 b13c 4066 c03d 71ad 0fbd
00000010: 3822 6db9 5d89 30bb b2be 3cbc baed febd
00000020: 208c 93bd 485b c03c 7a37 9d3d 6a0d 2a3d
00000030: 02cf 36bd 47c6 053c 922a 58bd b457 793d
00000040: 89f2 72bd d761 a33d 66e7 4cbd 1828 00be
00000050: 6fc0 feb9 805d 5d3a 6ee4 de3d 085e 913d
00000060: d2b8 eb3d 9feb 833b 193e b6bc ca0e 0a3d
00000070: e837 b2bb 51b0 9e3c 812e 963d 3e33 8cbb
00000080: e2c0 e13d b5fb 8a3c ad52 bebd 4aaa 2f3d
00000090: 2153 f03c d7f3 c8bc 1edb a6bb 6183 1f3e
000000a0: 0d49 a33d a6eb 66bd 3d21 26bc 4ee0 a33d
000000b0: 1783 c73d b69d 853d 5c06 053e 9735 823d
000000c0: 4dfb e13c 8fa4 e83b 4b6c a6bd 12f4 b5ba
000000d0: f12d 423d ff65 cebc cf2a 813d c8d3 0ebd
000000e0: 19e7 79bd 1964 a5bb f0c4 72bc 4f59 87bd
000000f0: a1ae aebc cc69 273d 3828 5c3d 3bac a1bd
00000100: dde8 b8bc 0f1b 6c3d 9cc1 933d 6ad9 e13d
00000110: 9e94 ac3d 638b 25bb b757 22bc 17c2 853d
00000120: e383 ee3c 9344 d43d a64d ab3c 6404 12bd
00000130: 0196 2fbc f645 bb3d e026 a03d bd26 133d
00000140: 3bee 0cbc 0058 0e3c ef7b 033d a33b febb
00000150: 1dbd adbe 5236 79bc b430 ab3d eeb4 333d
00000160: 55f6 223d 71a5 623e e15a 47bc 3663 3f3e
00000170: 80cb 10bd e33d acbb 88c3 27bd 7691 663d
00000180: 9af4 073d 5a9c b8bd 806d 06be 8757 b33e
00000190: c877 733e d234 ef3d 4e6e e3bc 931b d9bc
000001a0: afc6 b53b b5be c6bd 9774 29bf 66dd cd3d
000001b0: 4b33 483c d747 9abd 5b56 81bd ee9f 30bd
000001c0: 3731 d83d 967c 11bd ecd4 053b 6248 a9bd
000001d0: 593d c73d a92d d3bd d3d2 a0bc 57d3 f4bb
000001e0: eacf 053e 003c a63d 0b19 2f3c acf9 07bd
000001f0: 66d2 f7bc ef2c a53b 2cec 9d3b b738 85bc
00000200: bc1d 5f3c 26b5 223c 3792 9cbd ce71 00bb
00000210: 7357 283e 1e64 cebd dc1b 31bd fc15 1abb
00000220: 375c 19be 9417 1b3d c502 8fbc 2bc8 91bc
00000230: 10c5 063c dd25 423d a6fa b2bd 27d8 9d3b
00000240: b978 e03d f5db 5d3d 4314 adb8 2828 07bd
00000250: ab62 2a3d e9e0 c7bd 86bf c73d 05f7 70bc
00000260: 2e1f d1bd a99b b43c 2ef2 0f3e f0a6 19bd
00000270: b647 203e 441d 3f3e 64ab 1a3e a818 5dbd
00000280: 69c1 7abd 9f52 943d c77d ab3d 6072 46bd
00000290: 4dcd 7b3c 6c75 d93c 85df 8bbc 16af 5f3c
000002a0: 568e f2bd 2129 4fbc a597 18bd ea59 06bd
000002b0: e55d bc3d 448d 83bd ab22 01bc b70f 98ba
000002c0: 892b 2bbe 1b43 90bd 6176 b0bd d6f3 10bd
000002d0: ef83 29bd ac0d 10be 3b01 a83d 3560 bc3c
000002e0: b1ff 93bc 5c57 7f3d 99e2 96bd f57d e0bc
000002f0: 634b a93b 3e25 8dbd af4a 7cbd 5e91 5a3b
00000300: 3a56 2db9 cc7b a9bd 69d6 09be b8d0 8b3c
00000310: 53e0 ab3d f2f5 72bc 2e34 4dbd af50 8fbd
00000320: 0398 d63d 5c13 a5bd b47f f5bc 3d11 3b3c
00000330: bb5a 0e3e e03e 9c3d 0d97 873d 5b51 78bd
00000340: 4e1f 153d 85b9 ffbd e19e bc3b af1a 9d3a
00000350: b74e 1a3e 192e ab3d 0384 3b3d aebf 0dbb
00000360: 90cd 2d3e b95b 78bd 21fd bbbc fb86 86bd
00000370: d074 a43c 5ca9 0a3d 3b50 b7bb 6d62 5ebc
00000380: bb93 ca3d 768f a8bd 64de 08bd 66d1 933d
00000390: ef4d 713d c68e 4c3e 2546 003d eddb 3f3d
000003a0: e4e6 c1bd 5ee9 1e3c 5b20 04bb 69ef 123c
000003b0: 36df d6bc e038 bf3c 97f0 173e f369 263a
000003c0: b298 c3bc 9c60 0b3e 0180 b53d 0950 133b
000003d0: 4b8c 40bd 96df fb3d 880a af3d 6fe5 65bc
000003e0: 4a76 e53c c018 00bc acf7 f43d ade4 e7bc
000003f0: 9945 adbd 503c 253e f69e 71bd 9317 323d
0.050924774 0.021715308 0.09394503 -0.035077516 -0.00022614829 -0.0026937344 -0.011520075 -0.124476865
-0.07204461 0.023481026 0.07676597 0.0415167 -0.04463101 0.008164949 -0.052774973 0.060874656
-0.05931333 0.07977646 -0.050025366 -0.12515295 -0.0004859003 0.00084444135 0.10883413 0.07098013
0.11509861 0.004025891 -0.022246407 0.03370551 -0.0054387935 0.019371184 0.07333089 -0.0042785695
0.110231176 0.016965726 -0.09293113 0.04288701 0.029336514 -0.024530334 -0.005092039 0.15577461
0.07972918 -0.056377076 -0.010139761 0.08001767 0.097418 0.065242216 0.12990707 0.06357878
0.02758565 0.007099695 -0.08126124 -0.0013881943 0.047407094 -0.02519512 0.06306993 -0.03486994
-0.061011408 -0.005047333 -0.014817461 -0.06608831 -0.021323504 0.04087238 0.053749293 -0.078941785
-0.022571975 0.057642993 0.072146624 0.110277966 0.08426784 -0.0025260083 -0.009908608 0.0653116
0.029115623 0.10364642 0.02091105 -0.03564872 -0.010716916 0.09144203 0.07819915 0.035925616
-0.00860172 0.008687973 0.032100614 -0.007758574 -0.33933344 -0.015210705 0.08358899 0.04387372
0.0397857 0.22133423 -0.012167663 0.1869019 -0.035350323 -0.005256401 -0.040957958 0.056291066
0.033192255 -0.09014197 -0.13127708 0.35027716 0.23776162 0.116799966 -0.027762558 -0.026502406
0.0055473666 -0.09704343 -0.66193527 0.10051994 0.01221926 -0.075332336 -0.06315299 -0.04312127
0.10556262 -0.035519205 0.00204211 -0.08265759 0.09728498 -0.10311443 -0.019631779 -0.0074714827
0.13067594 0.08116913 0.010687123 -0.03319709 -0.030251693 0.005040757 0.0048194136 -0.016262395
0.013617929 0.009930884 -0.07645076 -0.0019599083 0.16439609 -0.100776896 -0.04323946 -0.002351164
-0.14976583 0.037864283 -0.017457375 -0.017795643 0.008225694 0.04739939 -0.08739214 0.004817027
0.10960526 0.054164845 -8.253057e-05 -0.03299728 0.041598003 -0.09759695 0.09753327 -0.014707332
-0.10211025 0.02204688 0.14057228 -0.03751272 0.15652356 0.18663508 0.15104443 -0.053978592
-0.061219607 0.07242321 0.083735995 -0.04844892 0.015368772 0.026545249 -0.017074356 0.013652584
-0.11843555 -0.012644083 -0.037253994 -0.032800592 0.091975965 -0.06423429 -0.007881801 -0.0011601363
-0.16715826 -0.07044049 -0.08616329 -0.03538879 -0.041385587 -0.14067715 0.0820336 0.022995094
-0.01806626 0.06233917 -0.07367439 -0.027403811 0.0051664575 -0.06891869 -0.06159466 0.0033350806
-0.00016530688 -0.082755655 -0.13460697 0.017067298 0.08392396 -0.014829146 -0.05009859 -0.06997811
0.10478213 -0.08060333 -0.02996812 0.011417684 0.13901798 0.0762918 0.066206075 -0.06062446
0.036406808 -0.12486557 0.0057562445 0.0011986102 0.1506909 0.08358402 0.045780193 -0.0021629143
0.16972947 -0.06063435 -0.02294785 -0.06568714 0.020075232 0.03385292 -0.005594281 -0.013573271
0.098914586 -0.08230488 -0.033415213 0.07217674 0.058912214 0.19976339 0.031316895 0.046840597
-0.09467867 0.009699194 -0.0020160887 0.008968213 -0.026229482 0.02334255 0.14837871 0.0006348185
-0.023876522 0.13611072 0.088623054 0.0022478125 -0.047008794 0.12298505 0.085469306 -0.014031752
0.028010506 -0.007818401 0.11961302 -0.028307283 -0.0846054 0.16136289 -0.058989488 0.043479513

network_body._body_endoder.seq_layers.0.bias f4 [128]
00000000: 45c4 ccbd f636 bbbd 75f2 f0bd 9343 3abb
00000010: dfa3 8d3c 38f4 18bd b144 303c 66f3 93bd
00000020: 1d0e 423c 1ef4 f73c 2f1f d4bc d9ff 07be
00000030: efd9 05bd c085 843c 0670 8cbc e7db 3cbd
00000040: 5df1 bdbd 156d 433d d678 26bd 089c 4cbb
00000050: 3e18 47be 0852 69bd 3e7c f6bc 0927 d1bc
00000060: 5e46 e13c 9685 0abd f933 7ebd 0639 bebc
00000070: c06b 8ebc bef0 adbd 719b a3bd a37c 08be
00000080: 482a e8bd 5835 c7bd b743 a8bd 8454 dbbd
00000090: d193 cdbc 4c8a e9bd df64 ecbd 2d9c a4ba
000000a0: 6eec f5bd 8dbf c9bc 3e8b ae3a a338 ca3c
000000b0: dc8c afbc 63d8 67bd ee58 5fbd 6b30 abbd
000000c0: dea5 c1bd e81a adbd c017 a8bd 8910 2fbd
000000d0: 58c9 89bd 5d06 32bc a952 34bd 1aab a0bd
000000e0: 3304 bfbd fdb3 be3c 979a 9abc b3e3 f8bd
000000f0: dd57 58bd b853 d6bd f20c 45bc f239 73bd
00000100: bb4e bebd 0825 90bc ea73 3e3c 56a5 2c3d
00000110: a018 7bbd 3c78 05be 05ed 8dbd fe35 4cbb
00000120: a010 4ebd c9b2 a13b 1622 acbc 7e30 c43c
00000130: e391 59bd 3d55 dcbd b316 e5bd fb4a 07bd
00000140: cb95 b0bc 8644 a4bc 3575 97bd 0198 91bd
00000150: eb7b 89bd 3e7e 363c b885 1c3d 1133 aa3c
00000160: 0273 e4bd b2c3 aabd 80bb 58bd 0942 db39
00000170: 5567 63bd 1a11 e7bd ab2f 9c3c 352b 43bd
00000180: 4510 17be 257f b4bd 9321 933b 9f79 8cbd
00000190: ff37 15bc 0bf2 aabc 3136 24bd 33da b6bd
000001a0: c124 0cbd 7d09 73bd 365f eebc 2945 16bd
000001b0: daaf a4bb 53a8 94bc 2df4 12bd b110 06be
000001c0: d923 e6bd 069b 00be 5d79 85bd 2783 10be
000001d0: 0151 febc ae70 1fbd 2e2b ea3b 6396 b0bd
000001e0: ad26 07be ddfa abbd ebf8 d3ba ca85 d13b
000001f0: 1f20 9cba f6f4 c5bd 1654 b5bb af61 37bd
-0.09998373 -0.09141342 -0.11764995 -0.0028421625 0.017290054 -0.03734228 0.010758565 -0.07224159
0.011844185 0.030267771 -0.025893776 -0.13281192 -0.03267854 0.016177058 -0.01714326 -0.046108153
-0.09274552 0.04771145 -0.040642582 -0.0031220932 -0.19442841 -0.056962997 -0.03008854 -0.025531309
0.027499374 -0.033818804 -0.062061284 -0.02322055 -0.017385364 -0.084931836 -0.079886325 -0.13328795
-0.113361895 -0.097269714 -0.082160406 -0.107094795 -0.025094898 -0.11403331 -0.11542677 -0.0012558751
-0.12007986 -0.024627471 0.0013316644 0.02468521 -0.021429472 -0.056602847 -0.05452817 -0.08358844
-0.09455465 -0.084523976 -0.08207655 -0.04274038 -0.067278564 -0.010865775 -0.044024143 -0.07845135
-0.09326973 0.023279184 -0.018872542 -0.12152805 -0.052818168 -0.10465187 -0.012027012 -0.059381433
-0.092923604 -0.017595783 0.011624316 0.042149864 -0.06130278 -0.13034147 -0.069299735 -0.0031160112
-0.050308824 0.004934643 -0.021012347 0.023948904 -0.053117644 -0.107584454 -0.1118597 -0.03303049
-0.021555802 -0.020052206 -0.07395402 -0.071090706 -0.067130886 0.011138497 0.03821346 0.020776303
-0.111547485 -0.08338107 -0.05291319 0.00041820135 -0.055518467 -0.11282559 0.019065699 -0.047648627
-0.147523 -0.088133134 0.0044900863 -0.06859135 -0.009107589 -0.020867368 -0.040090743 -0.08928337
-0.03421474 -0.05933522 -0.029098134 -0.03668705 -0.005025846 -0.01814667 -0.035877395 -0.13092305
-0.11237306 -0.12559137 -0.06517289 -0.1411253 -0.031044485 -0.03892582 0.0071462607 -0.08622434
-0.13198347 -0.08397458 -0.0016172206 0.0063941227 -0.0011911428 -0.09665863 -0.0055337055 -0.044770893

network_body._body_endoder.seq_layers.2.weight f4 [128, 128]
00000000: b5cf a13d 9d73 1b3c 796c 133e 164b 7f3c
00000010: 8d6b 21be 03e9 373a 8855 1dbe 1148 05be
00000020: 7f7d 03bd a7d0 44bd 3dd1 0ebd e4d6 313e
00000030: 3b04 193e ae8c b9bd 5fba ad3d 2e65 a13d
00000040: 66c7 80be 09f6 753d e01e 553c b900 e9bd
00000050: 93c4 47be 0ada 35be 2f40 15be a17b 083e
00000060: 3fd7 67bd 12b5 a0bd dce8 d7bc 3e6b ccbd
00000070: 4340 48be 7bae b93d b638 813b 12fc bdbc
00000080: 8f83 003d 9e0c 003e fc63 293e 7fe2 173d
00000090: 8556 a1bd 2489 ff3d 990d 0f3e e196 003d
000000a0: ef5e 713e 2765 653c 8c83 46be 647f 9fbd
000000b0: 9b35 1cbc 4911 37bb f216 413e 0418 0fbd
000000c0: b38d 503c edc1 cdbd 3af6 d43b 4f05 fa3d
000000d0: 57c7 163e ed4a 5abd ad07 4a3d ff21 6dbe
000000e0: c476 56be 1556 a6bd 22a0 d9bd e398 99bd
000000f0: dbb4 603c 4b82 c7bc 644e 033e fb4d 243d
00000100: 9bf7 30bd f4b5 093e d281 f6bd 9612 8dbd
00000110: 6535 ef3a e6df 93bd 23d6 6a3d afd0 c33c
00000120: 651b 293b 64a2 d13c a11e e4bd 4b3b 953e
00000130: 4c2e 2dbe 24b8 5abe db81 ebbd ac42 6e3e
00000140: 70ca 8fbc 3cb6 19be ae56 813e 3849 6b3d
00000150: fb3a 58bd 0820 91bc fb19 473d 178e b1bd
00000160: b093 043e 7b2f bcbd af57 cbbd 5d61 613d
00000170: b326 ce3d 75b3 3dbd 1815 fc3d 33b4 de3d
00000180: 26a0 abbc d8aa 1e3e 7317 25bd 1776 05bd
00000190: be8f 4e3e 23f6 c0bc 3430 62bb 4d2c 923d
000001a0: 8212 983d bb59 043d b9dc 173e b7a4 9fbd
000001b0: 5c61 e5bb 1fbf 2cbe be9a 4bba df71 53bc
000001c0: 6843 7bbd 85ec c5bd 523f 333c d8d2 17be
000001d0: 3b03 96bc b012 103c 3596 31be 88d6 4abe
000001e0: b2ad 2d3d 5124 39be 003e 45ba a4d1 44bc
000001f0: 4c52 24be 9f13 afbd aa25 37be a631 e3bc
00000200: ab62 a3bd d3be e73c 581d 563d 0ce4 c83d
00000210: 6912 093d edbb 023e 5a80 1e3e cda3 a73d
00000220: eb6a 063e 2452 043e bc28 9c3d b3f9 f83d
00000230: 76ec 063e 9061 333d 683a 48bd 164f 21be
00000240: 0280 d8bc 30db d13d e5d4 1ebe 0084 033e
00000250: 901c 80bd 0645 413e 0bf6 49be f385 65bd
00000260: 310e 543e 2002 a2bc 642f 043e cc97 333c
00000270: fbc8 49be 04b7 b6bd 68ee c1bd 2da2 2f3c
00000280: 21ba 9cbd 75c3 093d 1aea 673d 53a6 493d
00000290: c11e f1bd 2249 003d f8f3 893d 530f ce3c
000002a0: 245b debd a687 973d 8451 633e 9e38 5f3e
000002b0: b70b 07ba 9f4f e63d b11c 283d a31c a6bd
000002c0: 9947 823e da56 8a3c 4747 cd3d 7c8e 893c
000002d0: b857 293e 57c1 503e 8632 76bd eeff ff3a
000002e0: ee2e 9d3d 4998 9c3c 4b72 4fbe abac 7d3c
000002f0: 96a1 29bd 9ebe b9bd a63a 01bd cb81 ecbd
00000300: 87a3 04be 5d97 323e fb4f af3d 2b36 8b3e
00000310: 62b8 fe3b 5512 6cbe 37a5 eb3d eda6 713e
00000320: b3fa 98be 9683 1a3d 968b 2fbd 133e f2bc
00000330: 7f82 473e b3b1 383c cb73 b1bc 60c3 e73b
00000340: 5aad 403e cbbb 60bd f6e9 1c3d 2e51 74bc
00000350: d24e 2b3e 5ae9 613d 53d3 813d 5b31 033e
00000360: e675 e3bd 4553 0bbc d245 f4bd b82e 3d3e
00000370: 0bcb a33d a691 1fbe c834 e43d 0a5a 31be
00000380: 4e46 02be 2f79 6f3c f880 283e 273f 453e
00000390: 035a 35bb 262f 303d d6ef a8bd 439c 9c3b
000003a0: 6ab0 ea3b 3e44 69bd 95d8 d13b 5904 dfbd
000003b0: 9bd0 c8bc 7080 c13d 0c4e e5bd e827 b8bd
000003c0: c5b9 b8bd 80c1 f8bd 6f5a acbd bde4 83bd
000003d0: 81bb ea3d 3f30 3bbe 93f1 c1bd b508 53bd
000003e0: 8cab dfbc 066f 003e bfe2 1abb f5fb 28be
000003f0: 1a21 aabc 063a eebd e27f d2bd 3a67 133b
0.07900945 0.009488014 0.14396848 0.015581867 -0.15763684 0.00070156174 -0.15364659 -0.13015772
-0.032102104 -0.04805055 -0.034867514 0.1736713 0.1494302 -0.09060036 0.08482813 0.078806266
-0.2515213 0.06004909 0.013007849 -0.11377091 -0.19508581 -0.17758957 -0.14575265 0.1332841
-0.05660176 -0.078470364 -0.026356153 -0.09981392 -0.19555764 0.09066483 0.003943528 -0.023191486
0.031375464 0.12504813 0.16542047 0.037081238 -0.078778304 0.124773294 0.13970031 0.03139389
0.2357137 0.014001167 -0.19386119 -0.0778797 -0.009534265 -0.0027933887 0.18856409 -0.034935012
0.012729096 -0.10046754 0.006499079 0.12208044 0.1472448 -0.05329411 0.049323726 -0.231575
-0.20943743 -0.081218876 -0.10626246 -0.07499864 0.013714994 -0.02435412 0.12822872 0.04011343
-0.043204885 0.13448316 -0.1203648 -0.068883106 0.0018250166 -0.072204396 0.057333123 0.023903219
0.0025803682 0.02559013 -0.111386545 0.291468 -0.16912192 -0.21359307 -0.11499377 0.23267621
-0.017552584 -0.15010923 0.25261444 0.057442874 -0.052790623 -0.017715469 0.04860876 -0.086696796
0.12946963 -0.09188744 -0.09928834 0.055024493 0.10065975 -0.04631372 0.12308711 0.10874214
-0.020950388 0.15494859 -0.040305566 -0.032583322 0.20172021 -0.023554867 -0.0034513595 0.07137356
0.07425405 0.032312136 0.14830293 -0.07795089 -0.0070001315 -0.16869782 -0.0007766894 -0.012905567
-0.06134358 -0.09664253 0.01094039 -0.14826524 -0.018312087 0.008793518 -0.17342456 -0.198084
0.042401977 -0.1808026 -0.00075241923 -0.012012873 -0.16047019 -0.08548664 -0.17885461 -0.027733635
-0.07977804 0.028289234 0.052274078 0.098091215 0.033464823 0.12767 0.1547865 0.081855394
0.13126723 0.12921959 0.07624957 0.12157001 0.1317614 0.043794215 -0.048883826 -0.15752825
-0.026428226 0.10246885 -0.155109 0.12843323 -0.06255448 0.18873987 -0.19722764 -0.056035947
0.20708539 -0.019776404 0.12908703 0.010961484 -0.19705574 -0.08921626 -0.094693005 0.010719818
-0.07652689 0.033633668 0.05661974 0.049230885 -0.11773444 0.031319745 0.067359865 0.025153792
-0.108572274 0.0739892 0.22199064 0.21798941 -0.0005151587 0.11245655 0.041042987 -0.08110931
0.2544525 0.016887117 0.10023361 0.016791575 0.16537368 0.20386253 -0.060106777 0.0019531229
0.07674967 0.019115584 -0.20258443 0.015483062 -0.041413866 -0.090695605 -0.031550072 -0.115481935
-0.12953006 0.17440553 0.08560177 0.27189764 0.007773445 -0.23053868 0.115061216 0.23598833
-0.29878768 0.037723146 -0.04285773 -0.029570615 0.19483374 0.011272836 -0.02166166 0.007072851
0.18816128 -0.054866593 0.03830906 -0.014911933 0.16729286 0.055154182 0.06339135 0.12811796
-0.11106472 -0.00850374 -0.1192738 0.18474853 0.07997712 -0.15582904 0.1114288 -0.17319503
-0.12722132 0.014616295 0.16455448 0.19262372 -0.002767206 0.043013714 -0.0824887 0.00477937
0.0071621435 -0.056949846 0.0064039924 -0.10889501 -0.024513533 0.09448326 -0.11196527 -0.089919865
-0.09019808 -0.12146282 -0.08415686 -0.06440113 0.11461545 -0.18280123 -0.09469905 -0.051521976
-0.02730348 0.12542352 -0.0023633686 -0.16502364 -0.020767737 -0.11632161 -0.10278298 0.0022491948

network_body._body_endoder.seq_layers.2.bias f4 [128]
00000000: 6538 cbbc ba72 fc3c ba2d a5bb c5b8 2b3c
00000010: 1515 1fbd 83c1 0bbd 8da4 fabd c334 b23a
00000020: 6173 3bbd b928 913c b172 8dbd 5e32 383d
00000030: 841b b03d 36fa 18bd 2912 37bd e4ec efbc
00000040: 1aa2 2cbc 7432 f239 34c3 72bd 238e 21bd
00000050: 3e1d 753c e396 8b3c 9e4b 41bd 9e11 a33d
00000060: 2ca5 f9bd 35bd 7b3c 5522 eb3d 8236 f7bc
00000070: df00 cdbd 27f1 b83d 94ff 793d ebaf b1bc
00000080: 1db3 623d 6c4d acbb ab62 aebc 1548 9abd
00000090: f952 383d 0644 38bd ec5e 89bd fce6 0e3d
000000a0: 6b05 c4bd 3d0b 04be 4ebd 07be 37e9 4bbd
000000b0: dc98 4abd d7b3 41bc 0b25 db3c 1e9c c6bc
000000c0: 7b43 babd 02f4 503d 9ae9 223d d99e ddbd
000000d0: da35 773d 6c6d 8cbd 2ae7 443c f443 2f3c
000000e0: d2b3 30bd dc07 bb3a 72fe d73b d821 36bd
000000f0: 0709 613c 4f95 bdbd 3897 96bc 4a61 e9bd
00000100: 7df1 e5bd c4a1 ab3d b56e acbd 1de1 7cbd
00000110: 819c 203d 3c0f dfbd 1e11 3c3c e6be a4bb
00000120: e9f2 acbd 4285 d1bc bca1 4b3d 129e dabc
00000130: 9eac 7c3c 5fda b23c 6b59 453c a224 85bd
00000140: 9100 18bd 5e21 6abd 4fe1 023d 91d7 e7bc
00000150: 0516 e5bd 2583 96bd 33d0 193d 5c81 0b3b
00000160: b81f 37bd 8de5 d3bd 1e50 5d3d 6ba8 d53c
00000170: 7d9d 4abd ffb5 cfbd 0e5e 0f3d 01b3 b2bd
00000180: 3551 49bd bae1 60bd 2b6a a53c 40ce 7ebd
00000190: 78de 9a3c 1ed7 963c 77bc f7bd 9d38 e0bc
000001a0: 0946 c93c 1e49 92bd 2499 e3bd 99f3 3a3d
000001b0: 030a fa37 ac05 b33b d134 883c ec65 31bd
000001c0: bdf3 2dbd 9b35 84bd 5473 5abd 09f6 6fbd
000001d0: ec6d 873c 2aaa 4d3b 3c6e 58bd b628 eabd
000001e0: 4bf0 36bd 71da 76bd bd06 9bbd b2a4 49bd
000001f0: b815 75bd 3b07 f23b 9107 9d3c 95fd d9bd
-0.024807164 0.030816425 -0.0050408514 0.010481064 -0.038838465 -0.034120094 -0.12238417 0.0013596046
-0.04576433 0.017719613 -0.06906641 0.04496991 0.08598998 -0.037347995 -0.044695053 -0.029287763
-0.010536695 0.00046195427 -0.05926819 -0.039442193 0.014960585 0.017039722 -0.047191255 0.079623446
-0.12189707 0.015364935 0.11481158 -0.030177359 -0.10009932 0.09030371 0.061034754 -0.02169033
0.055346597 -0.005258253 -0.021287283 -0.0753328 0.045001004 -0.044986747 -0.06707558 0.034888253
-0.09571346 -0.12894912 -0.13255808 -0.049782958 -0.049462184 -0.011822662 0.026751062 -0.024244364
-0.09094902 0.051013954 0.03977356 -0.108213134 0.06035409 -0.06856808 0.012018004 0.010697354
-0.04314024 0.001426931 0.0065916115 -0.04446587 0.013735062 -0.09256994 -0.018382654 -0.113955095
-0.11227701 0.08380464 -0.08419553 -0.061738122 0.039211754 -0.108915776 0.01147869 -0.0050276397
-0.08444769 -0.025576238 0.04971479 -0.026686702 0.0154220145 0.021832643 0.012045245 -0.06501128
-0.037109915 -0.057160728 0.031953152 -0.028301032 -0.111858405 -0.073492326 0.03755207 0.002128682
-0.044707984 -0.10346518 0.054031484 0.026081285 -0.0494666 -0.10142135 0.035001807 -0.087255485
-0.04914971 -0.05490277 0.020192226 -0.062208414 0.01890491 0.018413123 -0.12096494 -0.027370745
0.024569528 -0.07142852 -0.11113194 0.04564247 2.9806984e-05 0.0054633226 0.016626747 -0.04331009
-0.042468775 -0.06455537 -0.05333264 -0.058584247 0.016531907 0.0031381943 -0.052839503 -0.11433546
-0.044662755 -0.060266916 -0.075696446 -0.04922933 -0.059835166 0.007386116 0.019168647 -0.1064407

network_body._body_endoder.seq_layers.4.weight f4 [128, 128]
00000000: 77bc d6bc 3c4c 83bd 0fa0 f13c 191e dcba
00000010: b340 d73d 6ef3 5ebc 4c92 093e b6e5 bd3d
00000020: 188d 24be 28ee e8bd 7193 243e 0820 92bd
00000030: f8ad f2bd 8ba2 64bb 9957 dd3d f7fb e5bd
00000040: 9662 503d 6566 1a3e a0dd f83a cc56 81be
00000050: d4e7 ecbd 22c4 263e 7d14 17be 19e6 34bd
00000060: 1ff2 853d 1322 88bd e85d b7bd 7491 52be
00000070: 8f1f 7a3d 2720 b9be d14b 1bbe d544 71bd
00000080: 3293 4cbd f845 71bd 3e03 3dbe c319 3bbe
00000090: 6d6b ce3d 67e7 c53c 50ac 96bd fd3f 2abc
000000a0: 3d6c bf3d 769f 9d3d b423 e53d 408c 0bbb
000000b0: 066e 10bd 6ee5 3ab8 aa7b 9d3d b255 b13d
000000c0: f38e 09be e08b 823c 6560 efbd 321a 443d
000000d0: d57c 733c c48e 283e 146b b3bc 7b7a 8e3d
000000e0: 295b 4cbe 1cda 5f3d 4a30 07bd c303 d53d
000000f0: 9c63 933d fed7 82bd 5f64 ac3c 1f6b e4bd
00000100: cb73 193e 6902 893d c9e8 29bd dce0 5cbe
00000110: eee1 12be b181 d7bd 0f09 0bbe 4090 173e
00000120: 09a8 893d 1dda 4fbd 87e3 9bbe cfec 033e
00000130: 84ff 3c3d 50c1 c33d ec14 a73b 638f c4bb
00000140: e479 fe3b ea91 d23d a887 d23d 180b 28be
00000150: 8c13 303e acea 75bd 0903 163d 8c5f 593d
00000160: 506b b4bb 2b27 cd3d edf5 273e 62d8 2c3e
00000170: 3f60 a6bc eaf8 bfbd 535a 2abe f70d 8f3d
00000180: e04c 7d3c d9d2 fe3d c617 c1bd 8887 363e
00000190: 57f3 c7bd f576 173e 94f4 ee3d 60a3 01bd
000001a0: 2660 e23d f3df b13a d895 4f3e 1d5d 89be
000001b0: 44e2 4c3d 02fa 2a3d 09b3 5ebe 94d4 863d
000001c0: 7ecf f1bc 5930 323e 2e1b 21bd df33 c93d
000001d0: 8d81 23bd aa5b 063d 6a63 bebd 7aa2 e43a
000001e0: dc71 c8bd 510e 83bd ecc7 773c 81c8 a83d
000001f0: a19e 363d 2475 403e 89bc babe 10a6 ebbc
00000200: 55d7 79bc 2f81 0cbe a809 033e c46f e3bc
00000210: 111b 02be 2d65 87be 48b3 ee3d 659c 7fbe
00000220: b36a 80bd 097d 39bc d88a 55be 2fe2 0ebd
00000230: 237b a4be 90b6 02be f406 81bc 7ae0 1fbe
00000240: 4451 e5bd 3583 38be f242 9dbe a637 65bd
00000250: 60b5 91be fb1b 8e3b c963 1dbc fc72 bd3d
00000260: f4fe 3abd b27b 6dbd 0062 ddbe f7e1 d8bd
00000270: af49 b2bc 67f4 c2bd d53e 5cbe 93df edbd
00000280: 5fa4 2fbc a51a 44be 6ee5 08bd 8d31 003e
00000290: 524d ad3c f02d f2bc bb44 8e3d ddc0 29bd
000002a0: 258e 2ebe 58d0 9bbc 6dd9 a6bd d9e5 3d3b
000002b0: f86a 09be 199f 0cbe 5e81 69bd e81e 9fbd
000002c0: f538 9bbd 9589 a2bd b884 c7bc 167f 703d
000002d0: c160 b33d a0c0 33be a20b 523d f1c5 e9bd
000002e0: 010e f13a 5fde fcbd d677 c03c fe05 48be
000002f0: 5351 ddbd b4ac 0ebe ff0f 4cbe 3fa8 12be
00000300: a08d 3bbd 93f8 87be c308 8d3d d1d3 f5bd
00000310: 957b 1abe 9393 543d a0de eebd b023 5fbb
00000320: b71c 0fbe a5b4 f2bc 6b07 17be 3450 6f3d
00000330: 7dc1 853d 7e24 c3bb 424c a6bd 6eea 8cbd
00000340: 87a0 59bc 64b0 99bc 2ef1 2c3e 52c4 62be
00000350: 863a f83c b172 55bc fffd 75be d00e 493c
00000360: 0ee6 f7bd 52d2 6f3e fb3c adbd 85e2 23bd
00000370: ac51 2abc 7955 f8bd fbfa c4ba edf5 af3c
00000380: 7c0a fcbd 3966 cb3d ba71 24bd 4ad6 353e
00000390: 2358 f7bd 0dbb a93d d9e7 78bd 893d 0fbe
000003a0: eef4 66be 2191 86bc 6cf8 8b3d 166c f4bb
000003b0: c826 88bd 7b29 d4bc af97 99bd 2529 c8bb
000003c0: 91dd 3f3d 5e9a 423e 88c8 c23d 374a c63d
000003d0: f39d d2bd 4d97 1fbe d173 14be 9313 79bd
000003e0: 3650 86bd dee9 33be 6a3a f7bd c1b7 a33d
000003f0: be8d 783d a24f 7bbd 3b33 2d3d 8d31 2ebd
-0.026212914 -0.06411025 0.029495267 -0.0016793638 0.10510387 -0.013607843 0.13434714 0.092723295
-0.16069448 -0.1137355 0.1607187 -0.07135016 -0.11849588 -0.0034886922 0.108077236 -0.11229699
0.05087527 0.15078123 0.0018986948 -0.25261533 -0.11567655 0.16285756 -0.1475391 -0.04416475
0.065403216 -0.06647124 -0.08953458 -0.20563298 0.061065253 -0.36157343 -0.1516564 -0.058903534
-0.049945064 -0.058904618 -0.18458268 -0.18271546 0.100790836 0.024158193 -0.07357085 -0.010391233
0.09346817 0.076964304 0.111884505 -0.0021293312 -0.035261177 -4.455953e-05 0.07689603 0.08658923
-0.13433437 0.015935838 -0.11688308 0.047876544 0.014861305 0.16460711 -0.021901645 0.06956955
-0.1995665 0.054651365 -0.033005036 0.10401108 0.07196733 -0.063888535 0.021043954 -0.11153244
0.14985578 0.06689913 -0.041481767 -0.21570152 -0.14343998 -0.105227835 -0.13577674 0.14801121
0.06721503 -0.05074512 -0.30447027 0.12883304 0.046142116 0.09558356 0.0050989296 -0.0059985383
0.0077659953 0.10281737 0.102797806 -0.16410482 0.17194957 -0.060038254 0.03662399 0.053069636
-0.0055059567 0.10017236 0.16402407 0.16879418 -0.020309566 -0.093736485 -0.16636018 0.069850855
0.015460223 0.1244256 -0.094283625 0.17825139 -0.0976321 0.14791472 0.11667743 -0.031649947
0.11053495 0.001357077 0.20272005 -0.26828852 0.05002047 0.041742332 -0.21747984 0.06583515
-0.029517885 0.17401256 -0.03933256 0.09824347 -0.03991847 0.03280226 -0.092963055 0.0017443441
-0.09787342 -0.06399215 0.015123349 0.08241368 0.044584874 0.18794686 -0.36471966 -0.028765708
-0.015249093 -0.13721155 0.12796652 -0.027763255 -0.12705638 -0.26444378 0.11655289 -0.24962004
-0.06270351 -0.011321315 -0.20853746 -0.034883674 -0.32125196 -0.12764955 -0.015750386 -0.15612975
-0.11197141 -0.18018802 -0.30715138 -0.055961274 -0.2845869 0.0043368316 -0.00960631 0.09250447
-0.0456533 -0.057979293 -0.4323883 -0.105899744 -0.02176365 -0.09519272 -0.21508344 -0.11614909
-0.0107203415 -0.19150789 -0.033421926 0.12518902 0.021155033 -0.02956292 0.06946703 -0.041443694
-0.17046411 -0.019020244 -0.081469394 0.0028976111 -0.13419712 -0.13732566 -0.05700814 -0.07769567
-0.07579223 -0.07936398 -0.024355277 0.05871495 0.08758689 -0.1755395 0.051280625 -0.114147075
0.0018391014 -0.123471014 0.023494642 -0.19533536 -0.10806527 -0.13933069 -0.19927977 -0.14321993
-0.04578936 -0.26556835 0.06886437 -0.120032914 -0.15086205 0.05189855 -0.11663556 -0.003404837
-0.13975798 -0.029627154 -0.14748923 0.058426097 0.065310456 -0.005955278 -0.08120014 -0.068806514
-0.013282902 -0.018760867 0.16888878 -0.22145203 0.030301344 -0.013027833 -0.24022673 0.012271598
-0.12104426 0.23420075 -0.08458897 -0.040010948 -0.010395449 -0.121256776 -0.0015028411 0.021479571
-0.12306687 0.09931607 -0.04014752 0.17757526 -0.120773576 0.0828763 -0.060767982 -0.13988318
-0.22554371 -0.016426625 0.06834492 -0.007459174 -0.06648022 -0.025898686 -0.074996345 -0.0061084204
0.04684216 0.19004199 0.095109046 0.09682124 -0.10284033 -0.1558506 -0.14497305 -0.060809683
-0.06558268 -0.17569682 -0.120716885 0.07994033 0.06068205 -0.06135524 0.042285185 -0.042527724

network_body._body_endoder.seq_layers.4.bias f4 [128]
00000000: 0778 84bd 6df9 3c3c 1840 b33b 3882 6bbd
00000010: 1c01 1f3b b0c2 10be c090 dcbc 5463 80bc
00000020: 761a 00bd 8b53 00bc 6409 053d b144 163e
00000030: 01f9 ccbc a130 e5bd b1a6 16be c78f 9ebb
00000040: d7e9 c5bd 441e 95bd 4df6 30bc c11a 21bc
00000050: 0719 b33d 3561 dcbd fa8c 843d 9139 fdbd
00000060: 6de3 283d 21a3 a63d a9eb a5bd 59d7 b6bd
00000070: bec5 92bc cebd c4bc 33ec 01be 1703 e2bc
00000080: c590 2cbd c3cf bbbd 7275 2cbe 59bc 813c
00000090: 4ee0 9dbd 2db3 07be ad67 5cbc 4292 8abb
000000a0: b3d3 e6bd 5205 a7bd bcca 7b3c 46ed 9bbd
000000b0: ad9b b8bb 090b ddbb bea4 873d 0cef 19bc
000000c0: 743e f3bc 0553 fb3b 0730 a9bd ee43 59bc
000000d0: f82d 32bc 98eb bbbd 8282 8b3b ed05 983c
000000e0: f333 383e d317 13be 37d8 a13d f846 213d
000000f0: f450 96bd 647e d4bd 9024 32bd f2a1 99bd
00000100: 6293 ee3c e960 2d3d 6cb6 54be 56fd e7bd
00000110: ad6c ee3c 9437 40be 47af 7c3d 1caa 16bd
00000120: bc6e 75bc 19f6 61bd 2327 43be b56d 1abe
00000130: 1fa1 473d f221 363e a20b 3f3c 7d41 2fbc
00000140: 87a1 e2bd f20f db3d b0e0 35be 15db f5bc
00000150: 81dd d7bd 28db 9dbb abe2 44bc 0086 f93d
00000160: ac58 9ebd 49d4 5ebd 0f99 8dbd e6e6 7abd
00000170: 902b f0bd 0bf6 b43d f794 383b 0c26 22be
00000180: 5084 06bc f261 d53c ec5d f1bc 0b22 86bd
00000190: c96b 123d cc3c 70be 1ad7 ee3b a181 b8bd
000001a0: 11e8 92bd b045 303d 12b1 acbd 634f fa3d
000001b0: 96ea bbbc 8f0d 56bd abdd ebbb 7147 7bbd
000001c0: 82f5 3e3d 161b e2bc 41e1 41bd bb1b 87bd
000001d0: 7efb acbd 7342 b33b 71be 753c 3883 c6bd
000001e0: a1ba c3bd 6e75 3a3c 7aa1 afbb c66a dcbc
000001f0: dbb5 143e e1b6 00bd ec06 c9bc 99c3 05be
-0.06468206 0.011534077 0.005470287 -0.057497233 0.0024262136 -0.14136767 -0.02692449 -0.015672363
-0.031275235 -0.007832418 0.03247966 0.14674641 -0.025021078 -0.11190916 -0.14712025 -0.004838917
-0.09663742 -0.07281163 -0.01080091 -0.009833039 0.08745008 -0.10760728 0.06472202 -0.123644955
0.041232515 0.08136583 -0.08101589 -0.08927793 -0.017916556 -0.024016287 -0.12687759 -0.027589364
-0.04213025 -0.09170487 -0.16841677 0.015836881 -0.07708798 -0.13251944 -0.013452453 -0.004228861
-0.11270847 -0.08155312 0.01536816 -0.07613616 -0.0056337924 -0.0067457003 0.06623219 -0.009395372
-0.029692866 0.007669809 -0.082611136 -0.013260825 -0.010875218 -0.09175795 0.004257501 0.018557513
0.17988567 -0.14364557 0.07902568 0.03937432 -0.07339659 -0.103756696 -0.0434919 -0.07501592
0.029123012 0.04232875 -0.20772713 -0.11327617 0.029104555 -0.18771201 0.061690595 -0.036783323
-0.014980014 -0.055166338 -0.19057898 -0.15080912 0.04873764 0.17786387 0.011660488 -0.010696766
-0.11065965 0.10696401 -0.17761493 -0.030011693 -0.105402954 -0.004817385 -0.0120169325 0.121837616
-0.077317566 -0.05440167 -0.06913959 -0.06125536 -0.11727059 0.088359915 0.0028164962 -0.15834826
-0.008210257 0.02604768 -0.02946373 -0.06549462 0.035747323 -0.23460692 0.0072888257 -0.090091
-0.071731694 0.04303521 -0.08432211 0.12222173 -0.022939008 -0.052259024 -0.0071980557 -0.06134743
0.046620853 -0.027600806 -0.04733396 -0.06597086 -0.08446406 0.005470568 0.014999018 -0.09692997
-0.09557081 0.0113805365 -0.0053598257 -0.026906382 0.14522497 -0.031424407 -0.024539433 -0.13062896

action_model._continuous_distribution.log_sigma f4 [1, 2]
00000000: d8ce 17c0 4426 2b40
-2.3719997 2.6742105

action_model._continuous_distribution.mu.weight f4 [2, 128]
00000000: 8464 633b 7caf e9bd 554f e6bc 7e28 4ebc
00000010: abeb 353d ea35 873c c5f8 7dbc f40e 90bd
00000020: 5da1 8b3b fab0 97bd 650c a5bd fd56 133b
00000030: 9c43 2fbd ccd2 843b 8b95 e13c abc3 333c
00000040: ac20 653b 45cf c9bc ed1a 0a3c ee90 0f3d
00000050: 176a b7bd 040d 22bc 6541 c7bc 668d 19bb
00000060: 221a ed3b 8ae0 95bd 05cf bebb e09f 9dbb
00000070: 620e 543c 47a9 3e3b 1834 0e3c 3898 0f3b
00000080: 6a9b 953c b2c7 09ba d68b 7c3a 475d ad3c
00000090: 432f 9d3a 5cee b7bb a4fc 2abd cfe9 5b3d
000000a0: 9fef 953b 5ab1 763c 7736 a1bc b5f3 d7bc
000000b0: 84e8 793c 9d9e eabb c392 1bbe 7069 49bc
000000c0: aec4 4dbd 2b4c f1bb 27fb d6bb 23de 643c
000000d0: 0e91 c2ba 08d3 eebc 8214 66bc 0971 343c
000000e0: 812f 8f3c 9729 d03a 4196 253d d56c 053d
000000f0: ab21 22bc 5861 2bbb 1245 81bc fe9b 95ba
00000100: 2ae0 08bd 39e3 38ba 0a09 333b dda4 873b
00000110: 8a8a 183b 9573 243c 568a 793d 9647 b03b
00000120: 4ace 6c3a 4759 90bc 890d 983b 9340 db3a
00000130: c146 003b 799d e33a f659 febc 1ed2 89bd
00000140: e300 1cbb 0e88 453a 0da0 073c 08f4 dd3c
00000150: 6051 93ba 773d acba c6b5 e43b b3e3 bfbc
00000160: 003f 2fbb c592 acbb c68b fdbc 2948 ac3c
00000170: 4f67 823c 211c b8bb 77d7 b3bc 8c13 ad3a
00000180: 376d b83a 304f 77bb a5f8 993a 37ba e5bb
00000190: bd71 7f3a d5f6 7cbc 35bc 393b 5cb9 5fbc
000001a0: 77f4 e73c 1290 503a 78e9 ebba ab72 e8bd
000001b0: 6d38 203d 5dab 77bd 0875 9fbd 5459 c9bc
000001c0: 8c5c f0bc bd7a 9bbb df00 143b 0421 17bb
000001d0: 0e23 923b 1548 5fbb 03dd 25bd 9387 f9bc
000001e0: a820 70bc f4f9 32bd 943e 82bc 7216 2abb
000001f0: a965 7f3b 145c 0f3d 47f5 1fbd e2d4 b93c
00000200: 5a8b 6bbe 47fe 98be 8666 5cbd 99ba 8cbe
00000210: 1ae8 22ba f038 febc 81ee 7ebd 7666 c4bd
00000220: cc40 92bd c24c 38be 762d 01bd 764a 883e
00000230: 93ff 1abe 05e6 28be e5e8 21be 6dc3 213e
00000240: 01ed 52be 9e38 39be ec28 f6bd 36c8 b9bd
00000250: 8820 12bd c19e b4be 528a bf3d b5de 54bd
00000260: 862c 093e ce9d 8dbc 669e aabe 6769 5cbe
00000270: f368 0a3e 0752 8a3e ca36 57be 7a15 6ebe
00000280: 392e e3bb e47e 45be 1035 c43d 448b cbbd
00000290: 5a7b 9fbe ede7 56be 7f33 13be c7ce 1abd
000002a0: c26a f7bd 60ec 6ebd b2d2 323e 9f55 31be
000002b0: 642d 27be fdff d33d 014f 573c 9e93 9fbe
000002c0: 7e65 00be b932 14bc 6eb5 17be 6aa4 923e
000002d0: f1a4 0b3e 114b e3bd 52e3 0bbd 71a8 fe3d
000002e0: 50ab 0b3e 06b1 c6bd e664 b13d 9476 a4bd
000002f0: e304 9c3d d516 76be d791 81be 9255 4cbe
00000300: 8ac8 37be 21f9 a93e e0b9 dbbd 2337 c1bc
00000310: ad3d 1a3e ed46 a5bc 5d97 84bc 79cf cabd
00000320: ec7f 6c3e dc51 b2bd 9128 6dbe 4328 4a3d
00000330: 1f27 903e 3cde af3e ea74 0fbe 0c12 91bc
00000340: 3765 8abe e0ed c13e 647c 29bc 1019 65bd
00000350: a4e8 a3bc df24 ca3d b280 89be fc50 573e
00000360: cf5f 80be 4f73 12be e645 52be b606 2d3d
00000370: dbe0 60bd 02ec 813e 6453 a8bd 3775 9dbe
00000380: 800b 39bc 9046 49bd 1606 e03d 4c3e 36be
00000390: cec5 493e 52ec d4bd 682e 08be f6e1 17be
000003a0: 9b4b e43b 33f2 a83e 36c9 1dbe 8871 c9bd
000003b0: 0fc8 53be 4449 40be 9e14 79be 9b5e f7bd
000003c0: 94c5 4f3e a468 aa3d f086 12be cccf 6fbe
000003d0: 8fc2 69be c1b6 e0bc bf34 02be debb 16bd
000003e0: 4eec 54be bb5a 7bbd d857 8c3e 7e78 eb3d
000003f0: 36f3 b23e f0e2 d4bd 1b37 b1bd fd27 21be
0.0034697363 -0.11410424 -0.028114 -0.012582896 0.044414204 0.0165052 -0.015501206 -0.07034102
0.0042611794 -0.074068025 -0.08059005 0.002248227 -0.042789087 0.0040534493 0.027537128 0.010971944
0.00349621 -0.024634967 0.008429271 0.035050325 -0.08955782 -0.0098907985 -0.024323175 -0.0023430227
0.0072357813 -0.07318218 -0.0058230185 -0.0048103184 0.012942882 0.0029092596 0.008679412 0.0021910798
0.018262584 -0.0005255892 0.0009633874 0.021162642 0.0011992235 -0.0056131314 -0.041744843 0.053689774
0.004575684 0.015056932 -0.019679291 -0.026361326 0.01525319 -0.0071600215 -0.15192704 -0.012293205
-0.050236396 -0.0073638163 -0.0065607014 0.013968977 -0.0014844255 -0.029153362 -0.014042975 0.011013278
0.017478706 0.0015881535 0.040426496 0.032574493 -0.009895722 -0.002615055 -0.015780006 -0.0011414287
-0.033416905 -0.0007052902 0.002731862 0.0041395263 0.0023275935 0.0100373225 0.060922943 0.0053796275
0.0009033425 -0.017620696 0.0046402854 0.0016727619 0.0019573423 0.0017365656 -0.031048756 -0.0672953
-0.002380424 0.00075352273 0.008277905 0.027093902 -0.0011239462 -0.0013140877 0.006979677 -0.023424005
-0.0026740432 -0.0052665197 -0.030950438 0.021030502 0.015918402 -0.0056185876 -0.021953328 0.0013204678
0.0014070634 -0.0037736408 0.0011747075 -0.007010724 0.00097444264 -0.015439709 0.002834094 -0.013655033
0.028314812 0.00079560385 -0.0017998656 -0.11349996 0.03911631 -0.06046616 -0.07785994 -0.024578728
-0.029341005 -0.004744856 0.0022583527 -0.002306045 0.0044597453 -0.0034070064 -0.040493976 -0.030460155
-0.014656223 -0.043695405 -0.01589898 -0.002595332 0.0038970506 0.034999922 -0.039052274 0.022684518
-0.23002377 -0.29881498 -0.05380871 -0.27486113 -0.00062143954 -0.03103301 -0.062239174 -0.095898554
-0.07141265 -0.17998031 -0.031537496 0.2661931 -0.15136556 -0.16493995 -0.15811498 0.15797205
-0.20598222 -0.18088004 -0.12019524 -0.0907139 -0.035675555 -0.3527737 0.093525544 -0.051970202
0.1339589 -0.017287161 -0.33323973 -0.21524583 0.13516597 0.27015707 -0.21016994 -0.2325038
-0.0069330004 -0.19286686 0.09580433 -0.09938672 -0.31148797 -0.2098691 -0.14375113 -0.037794854
-0.12080909 -0.058330894 0.17463186 -0.17317818 -0.16325909 0.1035156 0.013141395 -0.3116731
-0.12538716 -0.009045296 -0.14815304 0.28641063 0.13637139 -0.11098302 -0.034152336 0.124344714
0.1363957 -0.09701733 0.08661823 -0.080304295 0.076181196 -0.24032147 -0.2530658 -0.19954517
-0.17947593 0.33197883 -0.10728812 -0.023585862 0.1506259 -0.020175422 -0.016185457 -0.099028535
0.23095673 -0.0870702 -0.23160006 0.049354803 0.28154847 0.3434924 -0.14009443 -0.0177088
-0.27030346 0.37876797 -0.010344598 -0.055932105 -0.020008393 0.09870314 -0.26856 0.21026987
-0.25073096 -0.14301799 -0.20534477 0.04224273 -0.05490194 0.25375372 -0.082190305 -0.3075349
-0.011294246 -0.04913956 0.10938661 -0.17797202 0.19704363 -0.10396637 -0.13298953 -0.14832291
0.0069670207 0.32997283 -0.15408787 -0.098361075 -0.20681785 -0.18777949 -0.24324271 -0.120785914
0.20290214 0.0832074 -0.14309287 -0.23419112 -0.22828124 -0.027430894 -0.12715434 -0.036800258
-0.20793268 -0.061365824 0.2741077 0.114975914 0.3495118 -0.103948474 -0.08653089 -0.1573791

action_model._continuous_distribution.mu.bias f4 [2]
00000000: b0c5 af3d 2ab6 5f3e
0.08582628 0.21846834

onnx::Div_66 f4 [110]
00000000: 3e82 7041 1259 2340 4a66 d440 0891 523c
00000010: 628e 493e 337f 5a3d 3768 1a3e f867 b340
00000020: a2dd 1b40 6ea7 ad40 2cdc 2f40 19b5 593f
00000030: ee41 e23f 0929 273c e3b6 1b3e 11c2 5c3d
00000040: ad8f 0d3e 68ac 3e40 8a7d 563f fcc3 923f
00000050: 8d58 1e41 d11b c541 4e21 6f41 6c4b 0e40
00000060: 1e0f d040 5796 563c 9daf 483e 8fb3 5d3d
00000070: d736 0e3e 88c1 9b40 6759 0740 e3d6 9640
00000080: 97ba 2f40 0dbc 593f 040c e83f 1295 283c
00000090: 3497 183e 421a 603d 3421 013e 44d7 3e40
000000a0: 087f 563f ef00 993f 7f2e 1e41 0333 c441
000000b0: 33b5 6d41 97c6 ea3f 04aa cb40 b14e 5a3c
000000c0: c5fd 473e f58d 613d d0a1 003e 9024 7f40
000000d0: 1e99 dd3f 48f9 7640 179e 2f40 5ec3 593f
000000e0: d488 ed3f 64d0 293c 2aaf 153e fb13 643d
000000f0: df51 e63d 08f3 3e40 3a80 563f 6357 9f3f
00000100: 6bfa 1d41 6469 c341 1d3a 6c41 0825 aa3f
00000110: bd38 c740 75b3 5d3c f377 473e 9f3c 663d
00000120: 806b e23d 0222 3540 6046 9d3f 946a 2f40
00000130: a687 2f40 e7ca 593f e6b6 f23f c7d9 2a3c
00000140: d605 133e 19dc 683d 9eee c53d 6d02 3f40
00000150: ef81 563f 0dba a53f 1dbe 1d41 4dba c241
00000160: 88b2 6a41 8df0 cd3e dbb8 c240 74b9 603c
00000170: 7b1d 473e 1cfc 6b3d c100 be3d acc3 fb3b
00000180: 4254 5b3b 31cb f33b d176 2f40 68d1 593f
00000190: 3294 f73f c2af 2b3c 45a3 103e 9fad 6e3d
000001a0: f986 9e3d 4108 3f40 3986 563f 9119 ac3f
000001b0: bc7c 1d41 1921 c241
15.031797 2.5523114 6.6374865 0.012851961 0.19683221 0.053343963 0.15078817 5.6064415
2.4354024 5.426688 2.7478132 0.8504196 1.767637 0.010202655 0.15206484 0.053896014
0.13824339 2.9792728 0.8378531 1.146606 9.896619 24.638582 14.945631 2.2233534
6.5018454 0.013097367 0.19598241 0.05412632 0.13888107 4.8673744 2.1148317 4.7137313
2.7457635 0.8505257 1.8128667 0.010289447 0.1490143 0.05471254 0.12610322 2.9818888
0.83787584 1.195341 9.886352 24.524908 14.856738 1.8341855 6.364504 0.013324426
0.19530399 0.05506702 0.12561727 3.9866066 1.7312353 3.858965 2.744024 0.8506373
1.8557382 0.010364626 0.14617601 0.055683117 0.112460844 2.9835835 0.8378941 1.2448543
9.873637 24.42646 14.764188 1.3292551 6.225676 0.013531555 0.19479351 0.056210157
0.1105566 2.8302007 1.2287102 2.74088 2.7426543 0.8507523 1.8962066 0.010427899
0.14357695 0.056850526 0.09664653 2.984523 0.8379201 1.2947403 9.858914 24.340967
14.668587 0.40222588 6.0850654 0.0137160905 0.1944484 0.057613477 0.092774875 0.007683238
0.003346697 0.007439994 2.741627 0.85085154 1.9342101 0.010478916 0.14124782 0.058271047
0.07740588 2.9848788 0.8379856 1.3445302 9.842953 24.266161
